<?xml version="1.0"?>
<net name="Model3" version="11">
	<layers>
		<layer id="10" name="x" type="Parameter" version="opset1">
			<data shape="1,?" element_type="i64" />
			<output>
				<port id="0" precision="I64" names="phones">
					<dim>1</dim>
					<dim>-1</dim>
				</port>
			</output>
		</layer>
		<layer id="9" name="x_lengths" type="Parameter" version="opset1">
			<data shape="1" element_type="i64" />
			<output>
				<port id="0" precision="I64" names="phones_length">
					<dim>1</dim>
				</port>
			</output>
		</layer>
		<layer id="8" name="sid" type="Parameter" version="opset1">
			<data shape="1" element_type="i64" />
			<output>
				<port id="0" precision="I64" names="speakers">
					<dim>1</dim>
				</port>
			</output>
		</layer>
		<layer id="7" name="tone" type="Parameter" version="opset1">
			<data shape="1,?" element_type="i64" />
			<output>
				<port id="0" precision="I64" names="tones">
					<dim>1</dim>
					<dim>-1</dim>
				</port>
			</output>
		</layer>
		<layer id="6" name="language" type="Parameter" version="opset1">
			<data shape="1,?" element_type="i64" />
			<output>
				<port id="0" precision="I64" names="lang_ids">
					<dim>1</dim>
					<dim>-1</dim>
				</port>
			</output>
		</layer>
		<layer id="5" name="bert" type="Parameter" version="opset1">
			<data shape="1,1024,?" element_type="f32" />
			<output>
				<port id="0" precision="FP32" names="bert">
					<dim>1</dim>
					<dim>1024</dim>
					<dim>-1</dim>
				</port>
			</output>
		</layer>
		<layer id="4" name="ja_bert" type="Parameter" version="opset1">
			<data shape="1,768,?" element_type="f32" />
			<output>
				<port id="0" precision="FP32" names="ja_bert">
					<dim>1</dim>
					<dim>768</dim>
					<dim>-1</dim>
				</port>
			</output>
		</layer>
		<layer id="3" name="noise_scale" type="Parameter" version="opset1">
			<data shape="1" element_type="f32" />
			<output>
				<port id="0" precision="FP32" names="noise_scale">
					<dim>1</dim>
				</port>
			</output>
		</layer>
		<layer id="2" name="length_scale" type="Parameter" version="opset1">
			<data shape="1" element_type="f32" />
			<output>
				<port id="0" precision="FP32" names="length_scale">
					<dim>1</dim>
				</port>
			</output>
		</layer>
		<layer id="1" name="noise_scale_w" type="Parameter" version="opset1">
			<data shape="1" element_type="f32" />
			<output>
				<port id="0" precision="FP32" names="noise_scale_w">
					<dim>1</dim>
				</port>
			</output>
		</layer>
		<layer id="0" name="sdp_ratio" type="Parameter" version="opset1">
			<data shape="1" element_type="f32" />
			<output>
				<port id="0" precision="FP32" names="sdp_ratio">
					<dim>1</dim>
				</port>
			</output>
		</layer>
		<layer id="11" name="__module.model/aten::arange/Constant" type="Const" version="opset1">
			<data element_type="i32" shape="" offset="0" size="4" />
			<output>
				<port id="0" precision="I32" />
			</output>
		</layer>
		<layer id="12" name="__module.model.enc_p/aten::arange/Constant" type="Const" version="opset1">
			<data element_type="i32" shape="" offset="0" size="4" />
			<output>
				<port id="0" precision="I32" />
			</output>
		</layer>
		<layer id="13" name="self.model.enc_p.emb.weight_compressed" type="Const" version="opset1">
			<data element_type="f16" shape="112, 192" offset="4" size="43008" />
			<output>
				<port id="0" precision="FP16" names="self.model.enc_p.emb.weight">
					<dim>112</dim>
					<dim>192</dim>
				</port>
			</output>
		</layer>
		<layer id="14" name="self.model.enc_p.emb.weight" type="Convert" version="opset1">
			<data destination_type="f32" />
			<rt_info>
				<attribute name="decompression" version="0" />
			</rt_info>
			<input>
				<port id="0" precision="FP16">
					<dim>112</dim>
					<dim>192</dim>
				</port>
			</input>
			<output>
				<port id="1" precision="FP32">
					<dim>112</dim>
					<dim>192</dim>
				</port>
			</output>
		</layer>
		<layer id="15" name="__module.model.enc_p.emb/aten::embedding/Convert" type="Convert" version="opset1">
			<data destination_type="i32" />
			<input>
				<port id="0" precision="I64">
					<dim>1</dim>
					<dim>-1</dim>
				</port>
			</input>
			<output>
				<port id="1" precision="I32">
					<dim>1</dim>
					<dim>-1</dim>
				</port>
			</output>
		</layer>
		<layer id="16" name="__module.model.enc_p.emb/aten::embedding/Constant" type="Const" version="opset1">
			<data element_type="i32" shape="" offset="0" size="4" />
			<output>
				<port id="0" precision="I32" />
			</output>
		</layer>
		<layer id="17" name="__module.model.enc_p.emb/aten::embedding/Gather" type="Gather" version="opset8">
			<data batch_dims="0" />
			<input>
				<port id="0" precision="FP32">
					<dim>112</dim>
					<dim>192</dim>
				</port>
				<port id="1" precision="I32">
					<dim>1</dim>
					<dim>-1</dim>
				</port>
				<port id="2" precision="I32" />
			</input>
			<output>
				<port id="3" precision="FP32" names="104">
					<dim>1</dim>
					<dim>-1</dim>
					<dim>192</dim>
				</port>
			</output>
		</layer>
		<layer id="18" name="self.model.enc_p.tone_emb.weight_compressed" type="Const" version="opset1">
			<data element_type="f16" shape="11, 192" offset="43012" size="4224" />
			<output>
				<port id="0" precision="FP16" names="self.model.enc_p.tone_emb.weight">
					<dim>11</dim>
					<dim>192</dim>
				</port>
			</output>
		</layer>
		<layer id="19" name="self.model.enc_p.tone_emb.weight" type="Convert" version="opset1">
			<data destination_type="f32" />
			<rt_info>
				<attribute name="decompression" version="0" />
			</rt_info>
			<input>
				<port id="0" precision="FP16">
					<dim>11</dim>
					<dim>192</dim>
				</port>
			</input>
			<output>
				<port id="1" precision="FP32">
					<dim>11</dim>
					<dim>192</dim>
				</port>
			</output>
		</layer>
		<layer id="20" name="__module.model.enc_p.tone_emb/aten::embedding/Convert" type="Convert" version="opset1">
			<data destination_type="i32" />
			<input>
				<port id="0" precision="I64">
					<dim>1</dim>
					<dim>-1</dim>
				</port>
			</input>
			<output>
				<port id="1" precision="I32">
					<dim>1</dim>
					<dim>-1</dim>
				</port>
			</output>
		</layer>
		<layer id="21" name="__module.model.enc_p.tone_emb/aten::embedding/Constant" type="Const" version="opset1">
			<data element_type="i32" shape="" offset="0" size="4" />
			<output>
				<port id="0" precision="I32" />
			</output>
		</layer>
		<layer id="22" name="__module.model.enc_p.tone_emb/aten::embedding/Gather" type="Gather" version="opset8">
			<data batch_dims="0" />
			<input>
				<port id="0" precision="FP32">
					<dim>11</dim>
					<dim>192</dim>
				</port>
				<port id="1" precision="I32">
					<dim>1</dim>
					<dim>-1</dim>
				</port>
				<port id="2" precision="I32" />
			</input>
			<output>
				<port id="3" precision="FP32" names="106">
					<dim>1</dim>
					<dim>-1</dim>
					<dim>192</dim>
				</port>
			</output>
		</layer>
		<layer id="23" name="__module.model.enc_p/aten::add/Add" type="Add" version="opset1">
			<data auto_broadcast="numpy" />
			<input>
				<port id="0" precision="FP32">
					<dim>1</dim>
					<dim>-1</dim>
					<dim>192</dim>
				</port>
				<port id="1" precision="FP32">
					<dim>1</dim>
					<dim>-1</dim>
					<dim>192</dim>
				</port>
			</input>
			<output>
				<port id="2" precision="FP32" names="107">
					<dim>1</dim>
					<dim>-1</dim>
					<dim>192</dim>
				</port>
			</output>
		</layer>
		<layer id="24" name="self.model.enc_p.language_emb.weight_compressed" type="Const" version="opset1">
			<data element_type="f16" shape="4, 192" offset="47236" size="1536" />
			<output>
				<port id="0" precision="FP16" names="self.model.enc_p.language_emb.weight">
					<dim>4</dim>
					<dim>192</dim>
				</port>
			</output>
		</layer>
		<layer id="25" name="self.model.enc_p.language_emb.weight" type="Convert" version="opset1">
			<data destination_type="f32" />
			<rt_info>
				<attribute name="decompression" version="0" />
			</rt_info>
			<input>
				<port id="0" precision="FP16">
					<dim>4</dim>
					<dim>192</dim>
				</port>
			</input>
			<output>
				<port id="1" precision="FP32">
					<dim>4</dim>
					<dim>192</dim>
				</port>
			</output>
		</layer>
		<layer id="26" name="__module.model.enc_p.language_emb/aten::embedding/Convert" type="Convert" version="opset1">
			<data destination_type="i32" />
			<input>
				<port id="0" precision="I64">
					<dim>1</dim>
					<dim>-1</dim>
				</port>
			</input>
			<output>
				<port id="1" precision="I32">
					<dim>1</dim>
					<dim>-1</dim>
				</port>
			</output>
		</layer>
		<layer id="27" name="__module.model.enc_p.language_emb/aten::embedding/Constant" type="Const" version="opset1">
			<data element_type="i32" shape="" offset="0" size="4" />
			<output>
				<port id="0" precision="I32" />
			</output>
		</layer>
		<layer id="28" name="__module.model.enc_p.language_emb/aten::embedding/Gather" type="Gather" version="opset8">
			<data batch_dims="0" />
			<input>
				<port id="0" precision="FP32">
					<dim>4</dim>
					<dim>192</dim>
				</port>
				<port id="1" precision="I32">
					<dim>1</dim>
					<dim>-1</dim>
				</port>
				<port id="2" precision="I32" />
			</input>
			<output>
				<port id="3" precision="FP32" names="109">
					<dim>1</dim>
					<dim>-1</dim>
					<dim>192</dim>
				</port>
			</output>
		</layer>
		<layer id="29" name="__module.model.enc_p/aten::add/Add_1" type="Add" version="opset1">
			<data auto_broadcast="numpy" />
			<input>
				<port id="0" precision="FP32">
					<dim>1</dim>
					<dim>-1</dim>
					<dim>192</dim>
				</port>
				<port id="1" precision="FP32">
					<dim>1</dim>
					<dim>-1</dim>
					<dim>192</dim>
				</port>
			</input>
			<output>
				<port id="2" precision="FP32" names="110">
					<dim>1</dim>
					<dim>-1</dim>
					<dim>192</dim>
				</port>
			</output>
		</layer>
		<layer id="30" name="self.model.enc_p.bert_proj.weight_compressed" type="Const" version="opset1">
			<data element_type="f16" shape="192, 1024, 1" offset="48772" size="393216" />
			<output>
				<port id="0" precision="FP16" names="self.model.enc_p.bert_proj.weight">
					<dim>192</dim>
					<dim>1024</dim>
					<dim>1</dim>
				</port>
			</output>
		</layer>
		<layer id="31" name="self.model.enc_p.bert_proj.weight" type="Convert" version="opset1">
			<data destination_type="f32" />
			<rt_info>
				<attribute name="decompression" version="0" />
			</rt_info>
			<input>
				<port id="0" precision="FP16">
					<dim>192</dim>
					<dim>1024</dim>
					<dim>1</dim>
				</port>
			</input>
			<output>
				<port id="1" precision="FP32">
					<dim>192</dim>
					<dim>1024</dim>
					<dim>1</dim>
				</port>
			</output>
		</layer>
		<layer id="32" name="__module.model.enc_p.bert_proj/aten::_convolution/Convolution" type="Convolution" version="opset1">
			<data strides="1" dilations="1" pads_begin="0" pads_end="0" auto_pad="explicit" />
			<input>
				<port id="0" precision="FP32">
					<dim>1</dim>
					<dim>1024</dim>
					<dim>-1</dim>
				</port>
				<port id="1" precision="FP32">
					<dim>192</dim>
					<dim>1024</dim>
					<dim>1</dim>
				</port>
			</input>
			<output>
				<port id="2" precision="FP32">
					<dim>1</dim>
					<dim>192</dim>
					<dim>-1</dim>
				</port>
			</output>
		</layer>
		<layer id="33" name="__module.model.enc_p.bert_proj/aten::_convolution/Reshape_compressed" type="Const" version="opset1">
			<data element_type="f16" shape="1, 192, 1" offset="441988" size="384" />
			<output>
				<port id="0" precision="FP16">
					<dim>1</dim>
					<dim>192</dim>
					<dim>1</dim>
				</port>
			</output>
		</layer>
		<layer id="34" name="__module.model.enc_p.bert_proj/aten::_convolution/Reshape" type="Convert" version="opset1">
			<data destination_type="f32" />
			<rt_info>
				<attribute name="decompression" version="0" />
			</rt_info>
			<input>
				<port id="0" precision="FP16">
					<dim>1</dim>
					<dim>192</dim>
					<dim>1</dim>
				</port>
			</input>
			<output>
				<port id="1" precision="FP32">
					<dim>1</dim>
					<dim>192</dim>
					<dim>1</dim>
				</port>
			</output>
		</layer>
		<layer id="35" name="__module.model.enc_p.bert_proj/aten::_convolution/Add" type="Add" version="opset1">
			<data auto_broadcast="numpy" />
			<input>
				<port id="0" precision="FP32">
					<dim>1</dim>
					<dim>192</dim>
					<dim>-1</dim>
				</port>
				<port id="1" precision="FP32">
					<dim>1</dim>
					<dim>192</dim>
					<dim>1</dim>
				</port>
			</input>
			<output>
				<port id="2" precision="FP32" names="93">
					<dim>1</dim>
					<dim>192</dim>
					<dim>-1</dim>
				</port>
			</output>
		</layer>
		<layer id="36" name="__module.model.enc_p/aten::transpose/ScatterElementsUpdate" type="Const" version="opset1">
			<data element_type="i32" shape="3" offset="442372" size="12" />
			<output>
				<port id="0" precision="I32">
					<dim>3</dim>
				</port>
			</output>
		</layer>
		<layer id="37" name="__module.model.enc_p/aten::transpose/Transpose" type="Transpose" version="opset1">
			<input>
				<port id="0" precision="FP32">
					<dim>1</dim>
					<dim>192</dim>
					<dim>-1</dim>
				</port>
				<port id="1" precision="I32">
					<dim>3</dim>
				</port>
			</input>
			<output>
				<port id="2" precision="FP32" names="94,bert_emb">
					<dim>1</dim>
					<dim>-1</dim>
					<dim>192</dim>
				</port>
			</output>
		</layer>
		<layer id="38" name="__module.model.enc_p/aten::add/Add_2" type="Add" version="opset1">
			<data auto_broadcast="numpy" />
			<input>
				<port id="0" precision="FP32">
					<dim>1</dim>
					<dim>-1</dim>
					<dim>192</dim>
				</port>
				<port id="1" precision="FP32">
					<dim>1</dim>
					<dim>-1</dim>
					<dim>192</dim>
				</port>
			</input>
			<output>
				<port id="2" precision="FP32" names="111">
					<dim>1</dim>
					<dim>-1</dim>
					<dim>192</dim>
				</port>
			</output>
		</layer>
		<layer id="39" name="self.model.enc_p.ja_bert_proj.weight_compressed" type="Const" version="opset1">
			<data element_type="f16" shape="192, 768, 1" offset="442384" size="294912" />
			<output>
				<port id="0" precision="FP16" names="self.model.enc_p.ja_bert_proj.weight">
					<dim>192</dim>
					<dim>768</dim>
					<dim>1</dim>
				</port>
			</output>
		</layer>
		<layer id="40" name="self.model.enc_p.ja_bert_proj.weight" type="Convert" version="opset1">
			<data destination_type="f32" />
			<rt_info>
				<attribute name="decompression" version="0" />
			</rt_info>
			<input>
				<port id="0" precision="FP16">
					<dim>192</dim>
					<dim>768</dim>
					<dim>1</dim>
				</port>
			</input>
			<output>
				<port id="1" precision="FP32">
					<dim>192</dim>
					<dim>768</dim>
					<dim>1</dim>
				</port>
			</output>
		</layer>
		<layer id="41" name="__module.model.enc_p.ja_bert_proj/aten::_convolution/Convolution" type="Convolution" version="opset1">
			<data strides="1" dilations="1" pads_begin="0" pads_end="0" auto_pad="explicit" />
			<input>
				<port id="0" precision="FP32">
					<dim>1</dim>
					<dim>768</dim>
					<dim>-1</dim>
				</port>
				<port id="1" precision="FP32">
					<dim>192</dim>
					<dim>768</dim>
					<dim>1</dim>
				</port>
			</input>
			<output>
				<port id="2" precision="FP32">
					<dim>1</dim>
					<dim>192</dim>
					<dim>-1</dim>
				</port>
			</output>
		</layer>
		<layer id="42" name="__module.model.enc_p.ja_bert_proj/aten::_convolution/Reshape_compressed" type="Const" version="opset1">
			<data element_type="f16" shape="1, 192, 1" offset="737296" size="384" />
			<output>
				<port id="0" precision="FP16">
					<dim>1</dim>
					<dim>192</dim>
					<dim>1</dim>
				</port>
			</output>
		</layer>
		<layer id="43" name="__module.model.enc_p.ja_bert_proj/aten::_convolution/Reshape" type="Convert" version="opset1">
			<data destination_type="f32" />
			<rt_info>
				<attribute name="decompression" version="0" />
			</rt_info>
			<input>
				<port id="0" precision="FP16">
					<dim>1</dim>
					<dim>192</dim>
					<dim>1</dim>
				</port>
			</input>
			<output>
				<port id="1" precision="FP32">
					<dim>1</dim>
					<dim>192</dim>
					<dim>1</dim>
				</port>
			</output>
		</layer>
		<layer id="44" name="__module.model.enc_p.ja_bert_proj/aten::_convolution/Add" type="Add" version="opset1">
			<data auto_broadcast="numpy" />
			<input>
				<port id="0" precision="FP32">
					<dim>1</dim>
					<dim>192</dim>
					<dim>-1</dim>
				</port>
				<port id="1" precision="FP32">
					<dim>1</dim>
					<dim>192</dim>
					<dim>1</dim>
				</port>
			</input>
			<output>
				<port id="2" precision="FP32" names="101">
					<dim>1</dim>
					<dim>192</dim>
					<dim>-1</dim>
				</port>
			</output>
		</layer>
		<layer id="45" name="__module.model.enc_p/aten::transpose/ScatterElementsUpdate_1" type="Const" version="opset1">
			<data element_type="i32" shape="3" offset="442372" size="12" />
			<output>
				<port id="0" precision="I32">
					<dim>3</dim>
				</port>
			</output>
		</layer>
		<layer id="46" name="__module.model.enc_p/aten::transpose/Transpose_1" type="Transpose" version="opset1">
			<input>
				<port id="0" precision="FP32">
					<dim>1</dim>
					<dim>192</dim>
					<dim>-1</dim>
				</port>
				<port id="1" precision="I32">
					<dim>3</dim>
				</port>
			</input>
			<output>
				<port id="2" precision="FP32" names="102,ja_bert_emb">
					<dim>1</dim>
					<dim>-1</dim>
					<dim>192</dim>
				</port>
			</output>
		</layer>
		<layer id="47" name="__module.model.enc_p/aten::add/Add_3" type="Add" version="opset1">
			<data auto_broadcast="numpy" />
			<input>
				<port id="0" precision="FP32">
					<dim>1</dim>
					<dim>-1</dim>
					<dim>192</dim>
				</port>
				<port id="1" precision="FP32">
					<dim>1</dim>
					<dim>-1</dim>
					<dim>192</dim>
				</port>
			</input>
			<output>
				<port id="2" precision="FP32" names="112">
					<dim>1</dim>
					<dim>-1</dim>
					<dim>192</dim>
				</port>
			</output>
		</layer>
		<layer id="48" name="Constant_658471_compressed" type="Const" version="opset1">
			<data element_type="f16" shape="1, 1, 1" offset="737680" size="2" />
			<output>
				<port id="0" precision="FP16">
					<dim>1</dim>
					<dim>1</dim>
					<dim>1</dim>
				</port>
			</output>
		</layer>
		<layer id="49" name="Constant_658471" type="Convert" version="opset1">
			<data destination_type="f32" />
			<rt_info>
				<attribute name="decompression" version="0" />
			</rt_info>
			<input>
				<port id="0" precision="FP16">
					<dim>1</dim>
					<dim>1</dim>
					<dim>1</dim>
				</port>
			</input>
			<output>
				<port id="1" precision="FP32">
					<dim>1</dim>
					<dim>1</dim>
					<dim>1</dim>
				</port>
			</output>
		</layer>
		<layer id="50" name="__module.model.enc_p/aten::mul/Multiply" type="Multiply" version="opset1">
			<data auto_broadcast="numpy" />
			<input>
				<port id="0" precision="FP32">
					<dim>1</dim>
					<dim>-1</dim>
					<dim>192</dim>
				</port>
				<port id="1" precision="FP32">
					<dim>1</dim>
					<dim>1</dim>
					<dim>1</dim>
				</port>
			</input>
			<output>
				<port id="2" precision="FP32" names="113">
					<dim>1</dim>
					<dim>-1</dim>
					<dim>192</dim>
				</port>
			</output>
		</layer>
		<layer id="51" name="__module.model.enc_p/aten::transpose/ScatterElementsUpdate_2" type="Const" version="opset1">
			<data element_type="i32" shape="3" offset="442372" size="12" />
			<output>
				<port id="0" precision="I32">
					<dim>3</dim>
				</port>
			</output>
		</layer>
		<layer id="52" name="__module.model.enc_p/aten::transpose/Transpose_2" type="Transpose" version="opset1">
			<input>
				<port id="0" precision="FP32">
					<dim>1</dim>
					<dim>-1</dim>
					<dim>192</dim>
				</port>
				<port id="1" precision="I32">
					<dim>3</dim>
				</port>
			</input>
			<output>
				<port id="2" precision="FP32" names="114,x.3">
					<dim>1</dim>
					<dim>192</dim>
					<dim>-1</dim>
				</port>
			</output>
		</layer>
		<layer id="53" name="ShapeOf_682952" type="ShapeOf" version="opset3">
			<data output_type="i64" />
			<input>
				<port id="0" precision="FP32">
					<dim>1</dim>
					<dim>192</dim>
					<dim>-1</dim>
				</port>
			</input>
			<output>
				<port id="1" precision="I64">
					<dim>3</dim>
				</port>
			</output>
		</layer>
		<layer id="54" name="Constant_682953" type="Const" version="opset1">
			<data element_type="i64" shape="" offset="737682" size="8" />
			<output>
				<port id="0" precision="I64" />
			</output>
		</layer>
		<layer id="55" name="Constant_682954" type="Const" version="opset1">
			<data element_type="i64" shape="" offset="737690" size="8" />
			<output>
				<port id="0" precision="I64" />
			</output>
		</layer>
		<layer id="56" name="Gather_682955" type="Gather" version="opset8">
			<data batch_dims="0" />
			<input>
				<port id="0" precision="I64">
					<dim>3</dim>
				</port>
				<port id="1" precision="I64" />
				<port id="2" precision="I64" />
			</input>
			<output>
				<port id="3" precision="I64" names="115" />
			</output>
		</layer>
		<layer id="57" name="__module.model.enc_p/aten::arange/Constant_1" type="Const" version="opset1">
			<data element_type="i32" shape="" offset="737698" size="4" />
			<output>
				<port id="0" precision="I32" />
			</output>
		</layer>
		<layer id="58" name="__module.model.enc_p/aten::arange/Range" type="Range" version="opset4">
			<data output_type="i64" />
			<input>
				<port id="0" precision="I32" />
				<port id="1" precision="I64" />
				<port id="2" precision="I32" />
			</input>
			<output>
				<port id="3" precision="I64" names="116,x.5">
					<dim>-1</dim>
				</port>
			</output>
		</layer>
		<layer id="59" name="47" type="Const" version="opset1">
			<data element_type="i64" shape="" offset="737690" size="8" />
			<output>
				<port id="0" precision="I64" names="47" />
			</output>
		</layer>
		<layer id="60" name="__module.model.enc_p/aten::unsqueeze/Unsqueeze" type="Unsqueeze" version="opset1">
			<input>
				<port id="0" precision="I64">
					<dim>-1</dim>
				</port>
				<port id="1" precision="I64" />
			</input>
			<output>
				<port id="2" precision="I64" names="117">
					<dim>1</dim>
					<dim>-1</dim>
				</port>
			</output>
		</layer>
		<layer id="61" name="48" type="Const" version="opset1">
			<data element_type="i64" shape="" offset="737702" size="8" />
			<output>
				<port id="0" precision="I64" names="48" />
			</output>
		</layer>
		<layer id="62" name="__module.model.enc_p/aten::unsqueeze/Unsqueeze_1" type="Unsqueeze" version="opset1">
			<input>
				<port id="0" precision="I64">
					<dim>1</dim>
				</port>
				<port id="1" precision="I64" />
			</input>
			<output>
				<port id="2" precision="I64" names="118">
					<dim>1</dim>
					<dim>1</dim>
				</port>
			</output>
		</layer>
		<layer id="63" name="__module.model.enc_p/aten::lt/Less" type="Less" version="opset1">
			<data auto_broadcast="numpy" />
			<input>
				<port id="0" precision="I64">
					<dim>1</dim>
					<dim>-1</dim>
				</port>
				<port id="1" precision="I64">
					<dim>1</dim>
					<dim>1</dim>
				</port>
			</input>
			<output>
				<port id="2" precision="BOOL" names="119">
					<dim>1</dim>
					<dim>-1</dim>
				</port>
			</output>
		</layer>
		<layer id="64" name="__module.model.enc_p/aten::unsqueeze/Unsqueeze_2" type="Unsqueeze" version="opset1">
			<input>
				<port id="0" precision="BOOL">
					<dim>1</dim>
					<dim>-1</dim>
				</port>
				<port id="1" precision="I64" />
			</input>
			<output>
				<port id="2" precision="BOOL" names="120">
					<dim>1</dim>
					<dim>1</dim>
					<dim>-1</dim>
				</port>
			</output>
		</layer>
		<layer id="65" name="__module.model.enc_p/aten::to/Convert" type="Convert" version="opset1">
			<data destination_type="f32" />
			<input>
				<port id="0" precision="BOOL">
					<dim>1</dim>
					<dim>1</dim>
					<dim>-1</dim>
				</port>
			</input>
			<output>
				<port id="1" precision="FP32" names="121,1301,x_mask.1">
					<dim>1</dim>
					<dim>1</dim>
					<dim>-1</dim>
				</port>
			</output>
		</layer>
		<layer id="66" name="49" type="Const" version="opset1">
			<data element_type="i64" shape="" offset="737682" size="8" />
			<output>
				<port id="0" precision="I64" names="49" />
			</output>
		</layer>
		<layer id="67" name="__module.model.enc_p.encoder/aten::unsqueeze/Unsqueeze" type="Unsqueeze" version="opset1">
			<input>
				<port id="0" precision="FP32">
					<dim>1</dim>
					<dim>1</dim>
					<dim>-1</dim>
				</port>
				<port id="1" precision="I64" />
			</input>
			<output>
				<port id="2" precision="FP32" names="172,2392">
					<dim>1</dim>
					<dim>1</dim>
					<dim>1</dim>
					<dim>-1</dim>
				</port>
			</output>
		</layer>
		<layer id="68" name="__module.model/aten::arange/Constant_1" type="Const" version="opset1">
			<data element_type="i32" shape="" offset="0" size="4" />
			<output>
				<port id="0" precision="I32" />
			</output>
		</layer>
		<layer id="69" name="__module.model.enc_p/aten::mul/Multiply_1" type="Multiply" version="opset1">
			<data auto_broadcast="numpy" />
			<input>
				<port id="0" precision="FP32">
					<dim>1</dim>
					<dim>192</dim>
					<dim>-1</dim>
				</port>
				<port id="1" precision="FP32">
					<dim>1</dim>
					<dim>1</dim>
					<dim>-1</dim>
				</port>
			</input>
			<output>
				<port id="2" precision="FP32" names="122,x.7">
					<dim>1</dim>
					<dim>192</dim>
					<dim>-1</dim>
				</port>
			</output>
		</layer>
		<layer id="70" name="__module.model.enc_p.encoder/aten::mul/Multiply" type="Multiply" version="opset1">
			<data auto_broadcast="numpy" />
			<input>
				<port id="0" precision="FP32">
					<dim>1</dim>
					<dim>192</dim>
					<dim>-1</dim>
				</port>
				<port id="1" precision="FP32">
					<dim>1</dim>
					<dim>1</dim>
					<dim>-1</dim>
				</port>
			</input>
			<output>
				<port id="2" precision="FP32" names="175,x.17">
					<dim>1</dim>
					<dim>192</dim>
					<dim>-1</dim>
				</port>
			</output>
		</layer>
		<layer id="71" name="69" type="Const" version="opset1">
			<data element_type="i64" shape="" offset="737710" size="8" />
			<output>
				<port id="0" precision="I64" names="69" />
			</output>
		</layer>
		<layer id="72" name="__module.model.enc_p.encoder/aten::unsqueeze/Unsqueeze_1" type="Unsqueeze" version="opset1">
			<input>
				<port id="0" precision="FP32">
					<dim>1</dim>
					<dim>1</dim>
					<dim>-1</dim>
				</port>
				<port id="1" precision="I64" />
			</input>
			<output>
				<port id="2" precision="FP32" names="173">
					<dim>1</dim>
					<dim>1</dim>
					<dim>-1</dim>
					<dim>1</dim>
				</port>
			</output>
		</layer>
		<layer id="73" name="__module.model.enc_p.encoder/aten::mul/Multiply_1" type="Multiply" version="opset1">
			<data auto_broadcast="numpy" />
			<input>
				<port id="0" precision="FP32">
					<dim>1</dim>
					<dim>1</dim>
					<dim>1</dim>
					<dim>-1</dim>
				</port>
				<port id="1" precision="FP32">
					<dim>1</dim>
					<dim>1</dim>
					<dim>-1</dim>
					<dim>1</dim>
				</port>
			</input>
			<output>
				<port id="2" precision="FP32" names="174,mask.1">
					<dim>1</dim>
					<dim>1</dim>
					<dim>-1</dim>
					<dim>-1</dim>
				</port>
			</output>
		</layer>
		<layer id="74" name="Constant_658472_compressed" type="Const" version="opset1">
			<data element_type="f16" shape="1, 1, 1, 1" offset="737718" size="2" />
			<output>
				<port id="0" precision="FP16">
					<dim>1</dim>
					<dim>1</dim>
					<dim>1</dim>
					<dim>1</dim>
				</port>
			</output>
		</layer>
		<layer id="75" name="Constant_658472" type="Convert" version="opset1">
			<data destination_type="f32" />
			<rt_info>
				<attribute name="decompression" version="0" />
			</rt_info>
			<input>
				<port id="0" precision="FP16">
					<dim>1</dim>
					<dim>1</dim>
					<dim>1</dim>
					<dim>1</dim>
				</port>
			</input>
			<output>
				<port id="1" precision="FP32">
					<dim>1</dim>
					<dim>1</dim>
					<dim>1</dim>
					<dim>1</dim>
				</port>
			</output>
		</layer>
		<layer id="76" name="__module.model.enc_p.encoder.attn_layers.0/aten::eq/Equal" type="Equal" version="opset1">
			<data auto_broadcast="numpy" />
			<input>
				<port id="0" precision="FP32">
					<dim>1</dim>
					<dim>1</dim>
					<dim>-1</dim>
					<dim>-1</dim>
				</port>
				<port id="1" precision="FP32">
					<dim>1</dim>
					<dim>1</dim>
					<dim>1</dim>
					<dim>1</dim>
				</port>
			</input>
			<output>
				<port id="2" precision="BOOL" names="1007,1191,264,448,639,823">
					<dim>1</dim>
					<dim>1</dim>
					<dim>-1</dim>
					<dim>-1</dim>
				</port>
			</output>
		</layer>
		<layer id="77" name="__module.model.enc_p.encoder.attn_layers.0/aten::masked_fill/ConvertLike_compressed" type="Const" version="opset1">
			<data element_type="f16" shape="" offset="737720" size="2" />
			<output>
				<port id="0" precision="FP16" />
			</output>
		</layer>
		<layer id="78" name="__module.model.enc_p.encoder.attn_layers.0/aten::masked_fill/ConvertLike" type="Convert" version="opset1">
			<data destination_type="f32" />
			<rt_info>
				<attribute name="decompression" version="0" />
			</rt_info>
			<input>
				<port id="0" precision="FP16" />
			</input>
			<output>
				<port id="1" precision="FP32" />
			</output>
		</layer>
		<layer id="79" name="self.model.enc_p.encoder.attn_layers.0.conv_q.weight_compressed" type="Const" version="opset1">
			<data element_type="f16" shape="192, 192, 1" offset="737722" size="73728" />
			<output>
				<port id="0" precision="FP16" names="self.model.enc_p.encoder.attn_layers.0.conv_q.weight">
					<dim>192</dim>
					<dim>192</dim>
					<dim>1</dim>
				</port>
			</output>
		</layer>
		<layer id="80" name="self.model.enc_p.encoder.attn_layers.0.conv_q.weight" type="Convert" version="opset1">
			<data destination_type="f32" />
			<rt_info>
				<attribute name="decompression" version="0" />
			</rt_info>
			<input>
				<port id="0" precision="FP16">
					<dim>192</dim>
					<dim>192</dim>
					<dim>1</dim>
				</port>
			</input>
			<output>
				<port id="1" precision="FP32">
					<dim>192</dim>
					<dim>192</dim>
					<dim>1</dim>
				</port>
			</output>
		</layer>
		<layer id="81" name="__module.model.enc_p.encoder.attn_layers.0.conv_q/aten::_convolution/Convolution" type="Convolution" version="opset1">
			<data strides="1" dilations="1" pads_begin="0" pads_end="0" auto_pad="explicit" />
			<input>
				<port id="0" precision="FP32">
					<dim>1</dim>
					<dim>192</dim>
					<dim>-1</dim>
				</port>
				<port id="1" precision="FP32">
					<dim>192</dim>
					<dim>192</dim>
					<dim>1</dim>
				</port>
			</input>
			<output>
				<port id="2" precision="FP32">
					<dim>1</dim>
					<dim>192</dim>
					<dim>-1</dim>
				</port>
			</output>
		</layer>
		<layer id="82" name="__module.model.enc_p.encoder.attn_layers.0.conv_q/aten::_convolution/Reshape_compressed" type="Const" version="opset1">
			<data element_type="f16" shape="1, 192, 1" offset="811450" size="384" />
			<output>
				<port id="0" precision="FP16">
					<dim>1</dim>
					<dim>192</dim>
					<dim>1</dim>
				</port>
			</output>
		</layer>
		<layer id="83" name="__module.model.enc_p.encoder.attn_layers.0.conv_q/aten::_convolution/Reshape" type="Convert" version="opset1">
			<data destination_type="f32" />
			<rt_info>
				<attribute name="decompression" version="0" />
			</rt_info>
			<input>
				<port id="0" precision="FP16">
					<dim>1</dim>
					<dim>192</dim>
					<dim>1</dim>
				</port>
			</input>
			<output>
				<port id="1" precision="FP32">
					<dim>1</dim>
					<dim>192</dim>
					<dim>1</dim>
				</port>
			</output>
		</layer>
		<layer id="84" name="__module.model.enc_p.encoder.attn_layers.0.conv_q/aten::_convolution/Add" type="Add" version="opset1">
			<data auto_broadcast="numpy" />
			<input>
				<port id="0" precision="FP32">
					<dim>1</dim>
					<dim>192</dim>
					<dim>-1</dim>
				</port>
				<port id="1" precision="FP32">
					<dim>1</dim>
					<dim>192</dim>
					<dim>1</dim>
				</port>
			</input>
			<output>
				<port id="2" precision="FP32" names="188,query.1">
					<dim>1</dim>
					<dim>192</dim>
					<dim>-1</dim>
				</port>
			</output>
		</layer>
		<layer id="85" name="Constant_683603" type="Const" version="opset1">
			<data element_type="i64" shape="4" offset="811834" size="32" />
			<rt_info>
				<attribute name="precise" version="0" />
			</rt_info>
			<output>
				<port id="0" precision="I64">
					<dim>4</dim>
				</port>
			</output>
		</layer>
		<layer id="86" name="__module.model.enc_p.encoder.attn_layers.0/aten::view/Reshape" type="Reshape" version="opset1">
			<data special_zero="true" />
			<input>
				<port id="0" precision="FP32">
					<dim>1</dim>
					<dim>192</dim>
					<dim>-1</dim>
				</port>
				<port id="1" precision="I64">
					<dim>4</dim>
				</port>
			</input>
			<output>
				<port id="2" precision="FP32" names="209">
					<dim>1</dim>
					<dim>2</dim>
					<dim>96</dim>
					<dim>-1</dim>
				</port>
			</output>
		</layer>
		<layer id="87" name="__module.model.enc_p.encoder.attn_layers.0/aten::transpose/ScatterElementsUpdate" type="Const" version="opset1">
			<data element_type="i32" shape="4" offset="811866" size="16" />
			<output>
				<port id="0" precision="I32">
					<dim>4</dim>
				</port>
			</output>
		</layer>
		<layer id="88" name="__module.model.enc_p.encoder.attn_layers.0/aten::transpose/Transpose" type="Transpose" version="opset1">
			<input>
				<port id="0" precision="FP32">
					<dim>1</dim>
					<dim>2</dim>
					<dim>96</dim>
					<dim>-1</dim>
				</port>
				<port id="1" precision="I32">
					<dim>4</dim>
				</port>
			</input>
			<output>
				<port id="2" precision="FP32" names="210,query.3">
					<dim>1</dim>
					<dim>2</dim>
					<dim>-1</dim>
					<dim>96</dim>
				</port>
			</output>
		</layer>
		<layer id="89" name="Constant_658473_compressed" type="Const" version="opset1">
			<data element_type="f16" shape="1, 1, 1, 1" offset="811882" size="2" />
			<output>
				<port id="0" precision="FP16">
					<dim>1</dim>
					<dim>1</dim>
					<dim>1</dim>
					<dim>1</dim>
				</port>
			</output>
		</layer>
		<layer id="90" name="Constant_658473" type="Convert" version="opset1">
			<data destination_type="f32" />
			<rt_info>
				<attribute name="decompression" version="0" />
			</rt_info>
			<input>
				<port id="0" precision="FP16">
					<dim>1</dim>
					<dim>1</dim>
					<dim>1</dim>
					<dim>1</dim>
				</port>
			</input>
			<output>
				<port id="1" precision="FP32">
					<dim>1</dim>
					<dim>1</dim>
					<dim>1</dim>
					<dim>1</dim>
				</port>
			</output>
		</layer>
		<layer id="91" name="__module.model.enc_p.encoder.attn_layers.0/aten::div/Divide" type="Divide" version="opset1">
			<data auto_broadcast="numpy" m_pythondiv="true" />
			<input>
				<port id="0" precision="FP32">
					<dim>1</dim>
					<dim>2</dim>
					<dim>-1</dim>
					<dim>96</dim>
				</port>
				<port id="1" precision="FP32">
					<dim>1</dim>
					<dim>1</dim>
					<dim>1</dim>
					<dim>1</dim>
				</port>
			</input>
			<output>
				<port id="2" precision="FP32" names="217,231">
					<dim>1</dim>
					<dim>2</dim>
					<dim>-1</dim>
					<dim>96</dim>
				</port>
			</output>
		</layer>
		<layer id="92" name="self.model.enc_p.encoder.attn_layers.0.conv_k.weight_compressed" type="Const" version="opset1">
			<data element_type="f16" shape="192, 192, 1" offset="811884" size="73728" />
			<output>
				<port id="0" precision="FP16" names="self.model.enc_p.encoder.attn_layers.0.conv_k.weight">
					<dim>192</dim>
					<dim>192</dim>
					<dim>1</dim>
				</port>
			</output>
		</layer>
		<layer id="93" name="self.model.enc_p.encoder.attn_layers.0.conv_k.weight" type="Convert" version="opset1">
			<data destination_type="f32" />
			<rt_info>
				<attribute name="decompression" version="0" />
			</rt_info>
			<input>
				<port id="0" precision="FP16">
					<dim>192</dim>
					<dim>192</dim>
					<dim>1</dim>
				</port>
			</input>
			<output>
				<port id="1" precision="FP32">
					<dim>192</dim>
					<dim>192</dim>
					<dim>1</dim>
				</port>
			</output>
		</layer>
		<layer id="94" name="__module.model.enc_p.encoder.attn_layers.0.conv_k/aten::_convolution/Convolution" type="Convolution" version="opset1">
			<data strides="1" dilations="1" pads_begin="0" pads_end="0" auto_pad="explicit" />
			<input>
				<port id="0" precision="FP32">
					<dim>1</dim>
					<dim>192</dim>
					<dim>-1</dim>
				</port>
				<port id="1" precision="FP32">
					<dim>192</dim>
					<dim>192</dim>
					<dim>1</dim>
				</port>
			</input>
			<output>
				<port id="2" precision="FP32">
					<dim>1</dim>
					<dim>192</dim>
					<dim>-1</dim>
				</port>
			</output>
		</layer>
		<layer id="95" name="__module.model.enc_p.encoder.attn_layers.0.conv_k/aten::_convolution/Reshape_compressed" type="Const" version="opset1">
			<data element_type="f16" shape="1, 192, 1" offset="885612" size="384" />
			<output>
				<port id="0" precision="FP16">
					<dim>1</dim>
					<dim>192</dim>
					<dim>1</dim>
				</port>
			</output>
		</layer>
		<layer id="96" name="__module.model.enc_p.encoder.attn_layers.0.conv_k/aten::_convolution/Reshape" type="Convert" version="opset1">
			<data destination_type="f32" />
			<rt_info>
				<attribute name="decompression" version="0" />
			</rt_info>
			<input>
				<port id="0" precision="FP16">
					<dim>1</dim>
					<dim>192</dim>
					<dim>1</dim>
				</port>
			</input>
			<output>
				<port id="1" precision="FP32">
					<dim>1</dim>
					<dim>192</dim>
					<dim>1</dim>
				</port>
			</output>
		</layer>
		<layer id="97" name="__module.model.enc_p.encoder.attn_layers.0.conv_k/aten::_convolution/Add" type="Add" version="opset1">
			<data auto_broadcast="numpy" />
			<input>
				<port id="0" precision="FP32">
					<dim>1</dim>
					<dim>192</dim>
					<dim>-1</dim>
				</port>
				<port id="1" precision="FP32">
					<dim>1</dim>
					<dim>192</dim>
					<dim>1</dim>
				</port>
			</input>
			<output>
				<port id="2" precision="FP32" names="195,key.1">
					<dim>1</dim>
					<dim>192</dim>
					<dim>-1</dim>
				</port>
			</output>
		</layer>
		<layer id="98" name="Constant_683604" type="Const" version="opset1">
			<data element_type="i64" shape="4" offset="811834" size="32" />
			<rt_info>
				<attribute name="precise" version="0" />
			</rt_info>
			<output>
				<port id="0" precision="I64">
					<dim>4</dim>
				</port>
			</output>
		</layer>
		<layer id="99" name="__module.model.enc_p.encoder.attn_layers.0/aten::view/Reshape_1" type="Reshape" version="opset1">
			<data special_zero="true" />
			<input>
				<port id="0" precision="FP32">
					<dim>1</dim>
					<dim>192</dim>
					<dim>-1</dim>
				</port>
				<port id="1" precision="I64">
					<dim>4</dim>
				</port>
			</input>
			<output>
				<port id="2" precision="FP32" names="212,218">
					<dim>1</dim>
					<dim>2</dim>
					<dim>96</dim>
					<dim>-1</dim>
				</port>
			</output>
		</layer>
		<layer id="100" name="__module.model.enc_p.encoder.attn_layers.0/aten::matmul/MatMul" type="MatMul" version="opset1">
			<data transpose_a="false" transpose_b="false" />
			<input>
				<port id="0" precision="FP32">
					<dim>1</dim>
					<dim>2</dim>
					<dim>-1</dim>
					<dim>96</dim>
				</port>
				<port id="1" precision="FP32">
					<dim>1</dim>
					<dim>2</dim>
					<dim>96</dim>
					<dim>-1</dim>
				</port>
			</input>
			<output>
				<port id="2" precision="FP32" names="219,scores.1">
					<dim>1</dim>
					<dim>2</dim>
					<dim>-1</dim>
					<dim>-1</dim>
				</port>
			</output>
		</layer>
		<layer id="101" name="self.model.enc_p.encoder.attn_layers.0.emb_rel_k_compressed" type="Const" version="opset1">
			<data element_type="f16" shape="1, 9, 96" offset="885996" size="1728" />
			<output>
				<port id="0" precision="FP16" names="self.model.enc_p.encoder.attn_layers.0.emb_rel_k">
					<dim>1</dim>
					<dim>9</dim>
					<dim>96</dim>
				</port>
			</output>
		</layer>
		<layer id="102" name="self.model.enc_p.encoder.attn_layers.0.emb_rel_k" type="Convert" version="opset1">
			<data destination_type="f32" />
			<rt_info>
				<attribute name="decompression" version="0" />
			</rt_info>
			<input>
				<port id="0" precision="FP16">
					<dim>1</dim>
					<dim>9</dim>
					<dim>96</dim>
				</port>
			</input>
			<output>
				<port id="1" precision="FP32">
					<dim>1</dim>
					<dim>9</dim>
					<dim>96</dim>
				</port>
			</output>
		</layer>
		<layer id="103" name="Unsqueeze_183048" type="Const" version="opset1">
			<data element_type="i64" shape="1" offset="737690" size="8" />
			<rt_info>
				<attribute name="precise" version="0" />
			</rt_info>
			<output>
				<port id="0" precision="I64">
					<dim>1</dim>
				</port>
			</output>
		</layer>
		<layer id="104" name="ShapeOf_682957" type="ShapeOf" version="opset3">
			<data output_type="i64" />
			<input>
				<port id="0" precision="FP32">
					<dim>1</dim>
					<dim>192</dim>
					<dim>-1</dim>
				</port>
			</input>
			<output>
				<port id="1" precision="I64">
					<dim>3</dim>
				</port>
			</output>
		</layer>
		<layer id="105" name="Constant_682968" type="Const" version="opset1">
			<data element_type="i64" shape="" offset="737682" size="8" />
			<rt_info>
				<attribute name="precise" version="0" />
			</rt_info>
			<output>
				<port id="0" precision="I64" />
			</output>
		</layer>
		<layer id="106" name="Constant_682969" type="Const" version="opset1">
			<data element_type="i64" shape="" offset="737690" size="8" />
			<rt_info>
				<attribute name="precise" version="0" />
			</rt_info>
			<output>
				<port id="0" precision="I64" />
			</output>
		</layer>
		<layer id="107" name="Gather_682970" type="Gather" version="opset8">
			<data batch_dims="0" />
			<input>
				<port id="0" precision="I64">
					<dim>3</dim>
				</port>
				<port id="1" precision="I64" />
				<port id="2" precision="I64" />
			</input>
			<output>
				<port id="3" precision="I64" names="205" />
			</output>
		</layer>
		<layer id="108" name="Constant_183047" type="Const" version="opset1">
			<data element_type="i32" shape="" offset="0" size="4" />
			<rt_info>
				<attribute name="precise" version="0" />
			</rt_info>
			<output>
				<port id="0" precision="I32" />
			</output>
		</layer>
		<layer id="109" name="Unsqueeze_682698" type="Unsqueeze" version="opset1">
			<input>
				<port id="0" precision="I64" />
				<port id="1" precision="I32" />
			</input>
			<output>
				<port id="2" precision="I64">
					<dim>1</dim>
				</port>
			</output>
		</layer>
		<layer id="110" name="Constant_682700" type="Const" version="opset1">
			<data element_type="i64" shape="1" offset="887724" size="8" />
			<rt_info>
				<attribute name="precise" version="0" />
			</rt_info>
			<output>
				<port id="0" precision="I64">
					<dim>1</dim>
				</port>
			</output>
		</layer>
		<layer id="111" name="__module.model.enc_p.encoder.attn_layers.0/aten::sub/Subtract" type="Add" version="opset1">
			<data auto_broadcast="numpy" />
			<input>
				<port id="0" precision="I64">
					<dim>1</dim>
				</port>
				<port id="1" precision="I64">
					<dim>1</dim>
				</port>
			</input>
			<output>
				<port id="2" precision="I64" names="220,221,222,294,295,296,pad_length.1,pad_length.3">
					<dim>1</dim>
				</port>
			</output>
		</layer>
		<layer id="112" name="Concat_183054" type="Concat" version="opset1">
			<data axis="0" />
			<input>
				<port id="0" precision="I64">
					<dim>1</dim>
				</port>
				<port id="1" precision="I64">
					<dim>1</dim>
				</port>
				<port id="2" precision="I64">
					<dim>1</dim>
				</port>
				<port id="3" precision="I64">
					<dim>1</dim>
				</port>
				<port id="4" precision="I64">
					<dim>1</dim>
				</port>
				<port id="5" precision="I64">
					<dim>1</dim>
				</port>
			</input>
			<output>
				<port id="6" precision="I64">
					<dim>6</dim>
				</port>
			</output>
		</layer>
		<layer id="113" name="__module.model.enc_p.encoder.attn_layers.0/aten::pad/Range" type="Const" version="opset1">
			<data element_type="i32" shape="3" offset="887732" size="12" />
			<rt_info>
				<attribute name="precise" version="0" />
			</rt_info>
			<output>
				<port id="0" precision="I32">
					<dim>3</dim>
				</port>
			</output>
		</layer>
		<layer id="114" name="Constant_183063" type="Const" version="opset1">
			<data element_type="i32" shape="" offset="0" size="4" />
			<rt_info>
				<attribute name="precise" version="0" />
			</rt_info>
			<output>
				<port id="0" precision="I32" />
			</output>
		</layer>
		<layer id="115" name="__module.model.enc_p.encoder.attn_layers.0/aten::pad/Gather" type="Gather" version="opset8">
			<data batch_dims="0" />
			<input>
				<port id="0" precision="I64">
					<dim>6</dim>
				</port>
				<port id="1" precision="I32">
					<dim>3</dim>
				</port>
				<port id="2" precision="I32" />
			</input>
			<output>
				<port id="3" precision="I64">
					<dim>3</dim>
				</port>
			</output>
		</layer>
		<layer id="116" name="__module.model.enc_p.encoder.attn_layers.0/aten::pad/Range_4" type="Const" version="opset1">
			<data element_type="i32" shape="3" offset="887744" size="12" />
			<rt_info>
				<attribute name="precise" version="0" />
			</rt_info>
			<output>
				<port id="0" precision="I32">
					<dim>3</dim>
				</port>
			</output>
		</layer>
		<layer id="117" name="Constant_183081" type="Const" version="opset1">
			<data element_type="i32" shape="" offset="0" size="4" />
			<rt_info>
				<attribute name="precise" version="0" />
			</rt_info>
			<output>
				<port id="0" precision="I32" />
			</output>
		</layer>
		<layer id="118" name="__module.model.enc_p.encoder.attn_layers.0/aten::pad/Gather_5" type="Gather" version="opset8">
			<data batch_dims="0" />
			<input>
				<port id="0" precision="I64">
					<dim>6</dim>
				</port>
				<port id="1" precision="I32">
					<dim>3</dim>
				</port>
				<port id="2" precision="I32" />
			</input>
			<output>
				<port id="3" precision="I64">
					<dim>3</dim>
				</port>
			</output>
		</layer>
		<layer id="119" name="__module.model.enc_p.encoder.attn_layers.0/aten::pad/ConvertLike_11_compressed" type="Const" version="opset1">
			<data element_type="f16" shape="" offset="737718" size="2" />
			<output>
				<port id="0" precision="FP16" />
			</output>
		</layer>
		<layer id="120" name="__module.model.enc_p.encoder.attn_layers.0/aten::pad/ConvertLike_11" type="Convert" version="opset1">
			<data destination_type="f32" />
			<rt_info>
				<attribute name="decompression" version="0" />
			</rt_info>
			<input>
				<port id="0" precision="FP16" />
			</input>
			<output>
				<port id="1" precision="FP32" />
			</output>
		</layer>
		<layer id="121" name="__module.model.enc_p.encoder.attn_layers.0/aten::pad" type="Pad" version="opset1">
			<data pad_mode="constant" />
			<input>
				<port id="0" precision="FP32">
					<dim>1</dim>
					<dim>9</dim>
					<dim>96</dim>
				</port>
				<port id="1" precision="I64">
					<dim>3</dim>
				</port>
				<port id="2" precision="I64">
					<dim>3</dim>
				</port>
				<port id="3" precision="FP32" />
			</input>
			<output>
				<port id="4" precision="FP32" names="228,229,padded_relative_embeddings.1">
					<dim>1</dim>
					<dim>-1</dim>
					<dim>96</dim>
				</port>
			</output>
		</layer>
		<layer id="122" name="__module.model.enc_p.encoder.attn_layers.0/aten::slice/Reshape_4" type="Const" version="opset1">
			<data element_type="i64" shape="1" offset="737690" size="8" />
			<output>
				<port id="0" precision="I64">
					<dim>1</dim>
				</port>
			</output>
		</layer>
		<layer id="123" name="Constant_10480" type="Const" version="opset1">
			<data element_type="i64" shape="" offset="737682" size="8" />
			<rt_info>
				<attribute name="precise" version="0" />
			</rt_info>
			<output>
				<port id="0" precision="I64" names="62" />
			</output>
		</layer>
		<layer id="124" name="__module.model.enc_p.encoder.attn_layers.0/aten::mul/Multiply" type="Multiply" version="opset1">
			<data auto_broadcast="numpy" />
			<input>
				<port id="0" precision="I64" />
				<port id="1" precision="I64" />
			</input>
			<output>
				<port id="2" precision="I64" names="223,224,297,298" />
			</output>
		</layer>
		<layer id="125" name="Constant_656187" type="Const" version="opset1">
			<data element_type="i64" shape="" offset="737710" size="8" />
			<output>
				<port id="0" precision="I64" />
			</output>
		</layer>
		<layer id="126" name="__module.model.enc_p.encoder.attn_layers.0/aten::sub/Subtract_1" type="Add" version="opset1">
			<data auto_broadcast="numpy" />
			<input>
				<port id="0" precision="I64" />
				<port id="1" precision="I64" />
			</input>
			<output>
				<port id="2" precision="I64" names="225,226,299,300,slice_end_position.1,slice_end_position.3" />
			</output>
		</layer>
		<layer id="127" name="Constant_745464" type="Const" version="opset1">
			<data element_type="i64" shape="1" offset="737710" size="8" />
			<rt_info>
				<attribute name="precise" version="0" />
			</rt_info>
			<output>
				<port id="0" precision="I64">
					<dim>1</dim>
				</port>
			</output>
		</layer>
		<layer id="128" name="__module.model.enc_p.encoder.attn_layers.0/aten::slice/Reshape_5" type="Reshape" version="opset1">
			<data special_zero="false" />
			<input>
				<port id="0" precision="I64" />
				<port id="1" precision="I64">
					<dim>1</dim>
				</port>
			</input>
			<output>
				<port id="2" precision="I64">
					<dim>1</dim>
				</port>
			</output>
		</layer>
		<layer id="129" name="__module.model.enc_p.encoder.attn_layers.0/aten::slice/Reshape_6" type="Const" version="opset1">
			<data element_type="i64" shape="1" offset="737702" size="8" />
			<output>
				<port id="0" precision="I64">
					<dim>1</dim>
				</port>
			</output>
		</layer>
		<layer id="130" name="__module.model.enc_p.encoder.attn_layers.0/aten::slice/Reshape_7" type="Const" version="opset1">
			<data element_type="i64" shape="1" offset="737702" size="8" />
			<output>
				<port id="0" precision="I64">
					<dim>1</dim>
				</port>
			</output>
		</layer>
		<layer id="131" name="__module.model.enc_p.encoder.attn_layers.0/aten::slice/Slice_1" type="Slice" version="opset8">
			<input>
				<port id="0" precision="FP32">
					<dim>1</dim>
					<dim>-1</dim>
					<dim>96</dim>
				</port>
				<port id="1" precision="I64">
					<dim>1</dim>
				</port>
				<port id="2" precision="I64">
					<dim>1</dim>
				</port>
				<port id="3" precision="I64">
					<dim>1</dim>
				</port>
				<port id="4" precision="I64">
					<dim>1</dim>
				</port>
			</input>
			<output>
				<port id="5" precision="FP32" names="230,y.1">
					<dim>1</dim>
					<dim>-1</dim>
					<dim>96</dim>
				</port>
			</output>
		</layer>
		<layer id="132" name="__module.model.enc_p.encoder.attn_layers.0/aten::unsqueeze/Unsqueeze" type="Unsqueeze" version="opset1">
			<input>
				<port id="0" precision="FP32">
					<dim>1</dim>
					<dim>-1</dim>
					<dim>96</dim>
				</port>
				<port id="1" precision="I64" />
			</input>
			<output>
				<port id="2" precision="FP32" names="232">
					<dim>1</dim>
					<dim>1</dim>
					<dim>-1</dim>
					<dim>96</dim>
				</port>
			</output>
		</layer>
		<layer id="133" name="__module.model.enc_p.encoder.attn_layers.0/aten::matmul/MatMul_1" type="MatMul" version="opset1">
			<data transpose_a="false" transpose_b="true" />
			<input>
				<port id="0" precision="FP32">
					<dim>1</dim>
					<dim>2</dim>
					<dim>-1</dim>
					<dim>96</dim>
				</port>
				<port id="1" precision="FP32">
					<dim>1</dim>
					<dim>1</dim>
					<dim>-1</dim>
					<dim>96</dim>
				</port>
			</input>
			<output>
				<port id="2" precision="FP32" names="234,x.9">
					<dim>1</dim>
					<dim>2</dim>
					<dim>-1</dim>
					<dim>-1</dim>
				</port>
			</output>
		</layer>
		<layer id="134" name="__module.model.enc_p.encoder.attn_layers.0/aten::pad/Concat_1" type="Const" version="opset1">
			<data element_type="i32" shape="4" offset="887756" size="16" />
			<rt_info>
				<attribute name="precise" version="0" />
			</rt_info>
			<output>
				<port id="0" precision="I32">
					<dim>4</dim>
				</port>
			</output>
		</layer>
		<layer id="135" name="__module.model.enc_p.encoder.attn_layers.0/aten::pad/Concat_2" type="Const" version="opset1">
			<data element_type="i32" shape="4" offset="887772" size="16" />
			<rt_info>
				<attribute name="precise" version="0" />
			</rt_info>
			<output>
				<port id="0" precision="I32">
					<dim>4</dim>
				</port>
			</output>
		</layer>
		<layer id="136" name="__module.model.enc_p.encoder.attn_layers.0/aten::pad/ConvertLike_1_compressed" type="Const" version="opset1">
			<data element_type="f16" shape="" offset="737718" size="2" />
			<output>
				<port id="0" precision="FP16" />
			</output>
		</layer>
		<layer id="137" name="__module.model.enc_p.encoder.attn_layers.0/aten::pad/ConvertLike_1" type="Convert" version="opset1">
			<data destination_type="f32" />
			<rt_info>
				<attribute name="decompression" version="0" />
			</rt_info>
			<input>
				<port id="0" precision="FP16" />
			</input>
			<output>
				<port id="1" precision="FP32" />
			</output>
		</layer>
		<layer id="138" name="__module.model.enc_p.encoder.attn_layers.0/aten::pad/Pad" type="Pad" version="opset1">
			<data pad_mode="constant" />
			<input>
				<port id="0" precision="FP32">
					<dim>1</dim>
					<dim>2</dim>
					<dim>-1</dim>
					<dim>-1</dim>
				</port>
				<port id="1" precision="I32">
					<dim>4</dim>
				</port>
				<port id="2" precision="I32">
					<dim>4</dim>
				</port>
				<port id="3" precision="FP32" />
			</input>
			<output>
				<port id="4" precision="FP32" names="240,x.11">
					<dim>1</dim>
					<dim>2</dim>
					<dim>-1</dim>
					<dim>-1</dim>
				</port>
			</output>
		</layer>
		<layer id="139" name="Constant_683605" type="Const" version="opset1">
			<data element_type="i64" shape="3" offset="887788" size="24" />
			<rt_info>
				<attribute name="precise" version="0" />
			</rt_info>
			<output>
				<port id="0" precision="I64">
					<dim>3</dim>
				</port>
			</output>
		</layer>
		<layer id="140" name="__module.model.enc_p.encoder.attn_layers.0/aten::view/Reshape_2" type="Reshape" version="opset1">
			<data special_zero="true" />
			<input>
				<port id="0" precision="FP32">
					<dim>1</dim>
					<dim>2</dim>
					<dim>-1</dim>
					<dim>-1</dim>
				</port>
				<port id="1" precision="I64">
					<dim>3</dim>
				</port>
			</input>
			<output>
				<port id="2" precision="FP32" names="245,input.3">
					<dim>1</dim>
					<dim>2</dim>
					<dim>-1</dim>
				</port>
			</output>
		</layer>
		<layer id="141" name="ShapeOf_682962" type="ShapeOf" version="opset3">
			<data output_type="i64" />
			<input>
				<port id="0" precision="FP32">
					<dim>1</dim>
					<dim>192</dim>
					<dim>-1</dim>
				</port>
			</input>
			<output>
				<port id="1" precision="I64">
					<dim>3</dim>
				</port>
			</output>
		</layer>
		<layer id="142" name="Constant_682963" type="Const" version="opset1">
			<data element_type="i64" shape="1" offset="737682" size="8" />
			<rt_info>
				<attribute name="precise" version="0" />
			</rt_info>
			<output>
				<port id="0" precision="I64">
					<dim>1</dim>
				</port>
			</output>
		</layer>
		<layer id="143" name="Constant_682964" type="Const" version="opset1">
			<data element_type="i64" shape="" offset="737690" size="8" />
			<rt_info>
				<attribute name="precise" version="0" />
			</rt_info>
			<output>
				<port id="0" precision="I64" />
			</output>
		</layer>
		<layer id="144" name="Gather_682965" type="Gather" version="opset8">
			<data batch_dims="0" />
			<input>
				<port id="0" precision="I64">
					<dim>3</dim>
				</port>
				<port id="1" precision="I64">
					<dim>1</dim>
				</port>
				<port id="2" precision="I64" />
			</input>
			<output>
				<port id="3" precision="I64" names="207">
					<dim>1</dim>
				</port>
			</output>
		</layer>
		<layer id="145" name="Squeeze_682972" type="Squeeze" version="opset1">
			<input>
				<port id="0" precision="I64">
					<dim>1</dim>
				</port>
			</input>
			<output>
				<port id="1" precision="I64" names="237" />
			</output>
		</layer>
		<layer id="146" name="Constant_656191" type="Const" version="opset1">
			<data element_type="i64" shape="" offset="737710" size="8" />
			<rt_info>
				<attribute name="precise" version="0" />
			</rt_info>
			<output>
				<port id="0" precision="I64" />
			</output>
		</layer>
		<layer id="147" name="__module.model.enc_p.encoder.attn_layers.0/aten::sub/Subtract_2" type="Add" version="opset1">
			<data auto_broadcast="numpy" />
			<input>
				<port id="0" precision="I64" />
				<port id="1" precision="I64" />
			</input>
			<output>
				<port id="2" precision="I64" names="246,247,257,258" />
			</output>
		</layer>
		<layer id="148" name="Constant_183254" type="Const" version="opset1">
			<data element_type="i32" shape="" offset="0" size="4" />
			<rt_info>
				<attribute name="precise" version="0" />
			</rt_info>
			<output>
				<port id="0" precision="I32" />
			</output>
		</layer>
		<layer id="149" name="Unsqueeze_183256" type="Unsqueeze" version="opset1">
			<input>
				<port id="0" precision="I64" />
				<port id="1" precision="I32" />
			</input>
			<output>
				<port id="2" precision="I64">
					<dim>1</dim>
				</port>
			</output>
		</layer>
		<layer id="150" name="Concat_183261" type="Concat" version="opset1">
			<data axis="0" />
			<input>
				<port id="0" precision="I64">
					<dim>1</dim>
				</port>
				<port id="1" precision="I64">
					<dim>1</dim>
				</port>
				<port id="2" precision="I64">
					<dim>1</dim>
				</port>
				<port id="3" precision="I64">
					<dim>1</dim>
				</port>
				<port id="4" precision="I64">
					<dim>1</dim>
				</port>
				<port id="5" precision="I64">
					<dim>1</dim>
				</port>
			</input>
			<output>
				<port id="6" precision="I64">
					<dim>6</dim>
				</port>
			</output>
		</layer>
		<layer id="151" name="__module.model.enc_p.encoder.attn_layers.0/aten::pad/Range_1" type="Const" version="opset1">
			<data element_type="i32" shape="3" offset="887732" size="12" />
			<rt_info>
				<attribute name="precise" version="0" />
			</rt_info>
			<output>
				<port id="0" precision="I32">
					<dim>3</dim>
				</port>
			</output>
		</layer>
		<layer id="152" name="Constant_183270" type="Const" version="opset1">
			<data element_type="i32" shape="" offset="0" size="4" />
			<rt_info>
				<attribute name="precise" version="0" />
			</rt_info>
			<output>
				<port id="0" precision="I32" />
			</output>
		</layer>
		<layer id="153" name="__module.model.enc_p.encoder.attn_layers.0/aten::pad/Gather_1" type="Gather" version="opset8">
			<data batch_dims="0" />
			<input>
				<port id="0" precision="I64">
					<dim>6</dim>
				</port>
				<port id="1" precision="I32">
					<dim>3</dim>
				</port>
				<port id="2" precision="I32" />
			</input>
			<output>
				<port id="3" precision="I64">
					<dim>3</dim>
				</port>
			</output>
		</layer>
		<layer id="154" name="__module.model.enc_p.encoder.attn_layers.0/aten::pad/Range_4_1" type="Const" version="opset1">
			<data element_type="i32" shape="3" offset="887744" size="12" />
			<rt_info>
				<attribute name="precise" version="0" />
			</rt_info>
			<output>
				<port id="0" precision="I32">
					<dim>3</dim>
				</port>
			</output>
		</layer>
		<layer id="155" name="Constant_183288" type="Const" version="opset1">
			<data element_type="i32" shape="" offset="0" size="4" />
			<rt_info>
				<attribute name="precise" version="0" />
			</rt_info>
			<output>
				<port id="0" precision="I32" />
			</output>
		</layer>
		<layer id="156" name="__module.model.enc_p.encoder.attn_layers.0/aten::pad/Gather_5_1" type="Gather" version="opset8">
			<data batch_dims="0" />
			<input>
				<port id="0" precision="I64">
					<dim>6</dim>
				</port>
				<port id="1" precision="I32">
					<dim>3</dim>
				</port>
				<port id="2" precision="I32" />
			</input>
			<output>
				<port id="3" precision="I64">
					<dim>3</dim>
				</port>
			</output>
		</layer>
		<layer id="157" name="__module.model.enc_p.encoder.attn_layers.0/aten::pad/ConvertLike_11_1_compressed" type="Const" version="opset1">
			<data element_type="f16" shape="" offset="737718" size="2" />
			<output>
				<port id="0" precision="FP16" />
			</output>
		</layer>
		<layer id="158" name="__module.model.enc_p.encoder.attn_layers.0/aten::pad/ConvertLike_11_1" type="Convert" version="opset1">
			<data destination_type="f32" />
			<rt_info>
				<attribute name="decompression" version="0" />
			</rt_info>
			<input>
				<port id="0" precision="FP16" />
			</input>
			<output>
				<port id="1" precision="FP32" />
			</output>
		</layer>
		<layer id="159" name="__module.model.enc_p.encoder.attn_layers.0/aten::pad_1" type="Pad" version="opset1">
			<data pad_mode="constant" />
			<input>
				<port id="0" precision="FP32">
					<dim>1</dim>
					<dim>2</dim>
					<dim>-1</dim>
				</port>
				<port id="1" precision="I64">
					<dim>3</dim>
				</port>
				<port id="2" precision="I64">
					<dim>3</dim>
				</port>
				<port id="3" precision="FP32" />
			</input>
			<output>
				<port id="4" precision="FP32" names="249,x_flat.1">
					<dim>1</dim>
					<dim>2</dim>
					<dim>-1</dim>
				</port>
			</output>
		</layer>
		<layer id="160" name="__module.model.enc_p.encoder.attn_layers.0/aten::size/ShapeOf_3" type="ShapeOf" version="opset3">
			<data output_type="i64" />
			<input>
				<port id="0" precision="FP32">
					<dim>1</dim>
					<dim>2</dim>
					<dim>-1</dim>
					<dim>-1</dim>
				</port>
			</input>
			<output>
				<port id="1" precision="I64">
					<dim>4</dim>
				</port>
			</output>
		</layer>
		<layer id="161" name="Constant_628267" type="Const" version="opset1">
			<data element_type="i64" shape="2" offset="887812" size="16" />
			<rt_info>
				<attribute name="precise" version="0" />
			</rt_info>
			<output>
				<port id="0" precision="I64">
					<dim>2</dim>
				</port>
			</output>
		</layer>
		<layer id="162" name="Constant_628268" type="Const" version="opset1">
			<data element_type="i64" shape="" offset="737690" size="8" />
			<rt_info>
				<attribute name="precise" version="0" />
			</rt_info>
			<output>
				<port id="0" precision="I64" />
			</output>
		</layer>
		<layer id="163" name="Gather_628269" type="Gather" version="opset8">
			<data batch_dims="0" />
			<input>
				<port id="0" precision="I64">
					<dim>4</dim>
				</port>
				<port id="1" precision="I64">
					<dim>2</dim>
				</port>
				<port id="2" precision="I64" />
			</input>
			<output>
				<port id="3" precision="I64">
					<dim>2</dim>
				</port>
			</output>
		</layer>
		<layer id="164" name="Constant_682706" type="Const" version="opset1">
			<data element_type="i64" shape="1" offset="737702" size="8" />
			<rt_info>
				<attribute name="precise" version="0" />
			</rt_info>
			<output>
				<port id="0" precision="I64">
					<dim>1</dim>
				</port>
			</output>
		</layer>
		<layer id="165" name="__module.model.enc_p.encoder.attn_layers.0/aten::add/Add_1" type="Add" version="opset1">
			<data auto_broadcast="numpy" />
			<input>
				<port id="0" precision="I64">
					<dim>1</dim>
				</port>
				<port id="1" precision="I64">
					<dim>1</dim>
				</port>
			</input>
			<output>
				<port id="2" precision="I64" names="250,251">
					<dim>1</dim>
				</port>
			</output>
		</layer>
		<layer id="166" name="__module.model.enc_p.encoder.attn_layers.0/aten::mul/Multiply_1" type="Multiply" version="opset1">
			<data auto_broadcast="numpy" />
			<input>
				<port id="0" precision="I64" />
				<port id="1" precision="I64" />
			</input>
			<output>
				<port id="2" precision="I64" names="241,252" />
			</output>
		</layer>
		<layer id="167" name="Constant_656195" type="Const" version="opset1">
			<data element_type="i64" shape="" offset="737710" size="8" />
			<rt_info>
				<attribute name="precise" version="0" />
			</rt_info>
			<output>
				<port id="0" precision="I64" />
			</output>
		</layer>
		<layer id="168" name="__module.model.enc_p.encoder.attn_layers.0/aten::sub/Subtract_3" type="Add" version="opset1">
			<data auto_broadcast="numpy" />
			<input>
				<port id="0" precision="I64" />
				<port id="1" precision="I64" />
			</input>
			<output>
				<port id="2" precision="I64" names="253,254" />
			</output>
		</layer>
		<layer id="169" name="Constant_745465" type="Const" version="opset1">
			<data element_type="i64" shape="1" offset="737710" size="8" />
			<rt_info>
				<attribute name="precise" version="0" />
			</rt_info>
			<output>
				<port id="0" precision="I64">
					<dim>1</dim>
				</port>
			</output>
		</layer>
		<layer id="170" name="__module.model.enc_p.encoder.attn_layers.0/prim::ListConstruct/Reshape_2_2" type="Reshape" version="opset1">
			<data special_zero="false" />
			<input>
				<port id="0" precision="I64" />
				<port id="1" precision="I64">
					<dim>1</dim>
				</port>
			</input>
			<output>
				<port id="2" precision="I64">
					<dim>1</dim>
				</port>
			</output>
		</layer>
		<layer id="171" name="__module.model.enc_p.encoder.attn_layers.0/prim::ListConstruct/Concat_3" type="Concat" version="opset1">
			<data axis="0" />
			<input>
				<port id="0" precision="I64">
					<dim>2</dim>
				</port>
				<port id="1" precision="I64">
					<dim>1</dim>
				</port>
				<port id="2" precision="I64">
					<dim>1</dim>
				</port>
			</input>
			<output>
				<port id="3" precision="I64" names="255">
					<dim>4</dim>
				</port>
			</output>
		</layer>
		<layer id="172" name="__module.model.enc_p.encoder.attn_layers.0/aten::view/Reshape_3" type="Reshape" version="opset1">
			<data special_zero="false" />
			<input>
				<port id="0" precision="FP32">
					<dim>1</dim>
					<dim>2</dim>
					<dim>-1</dim>
				</port>
				<port id="1" precision="I64">
					<dim>4</dim>
				</port>
			</input>
			<output>
				<port id="2" precision="FP32" names="256,259,260">
					<dim>1</dim>
					<dim>2</dim>
					<dim>-1</dim>
					<dim>-1</dim>
				</port>
			</output>
		</layer>
		<layer id="173" name="__module.model.enc_p.encoder.attn_layers.0/aten::slice/Reshape_16" type="Const" version="opset1">
			<data element_type="i64" shape="1" offset="737690" size="8" />
			<output>
				<port id="0" precision="I64">
					<dim>1</dim>
				</port>
			</output>
		</layer>
		<layer id="174" name="Constant_745466" type="Const" version="opset1">
			<data element_type="i64" shape="1" offset="737710" size="8" />
			<rt_info>
				<attribute name="precise" version="0" />
			</rt_info>
			<output>
				<port id="0" precision="I64">
					<dim>1</dim>
				</port>
			</output>
		</layer>
		<layer id="175" name="__module.model.enc_p.encoder.attn_layers.0/aten::slice/Reshape_20" type="Reshape" version="opset1">
			<data special_zero="false" />
			<input>
				<port id="0" precision="I64" />
				<port id="1" precision="I64">
					<dim>1</dim>
				</port>
			</input>
			<output>
				<port id="2" precision="I64">
					<dim>1</dim>
				</port>
			</output>
		</layer>
		<layer id="176" name="Concat_650700" type="Concat" version="opset1">
			<data axis="0" />
			<input>
				<port id="0" precision="I64">
					<dim>1</dim>
				</port>
				<port id="1" precision="I64">
					<dim>1</dim>
				</port>
			</input>
			<output>
				<port id="2" precision="I64">
					<dim>2</dim>
				</port>
			</output>
		</layer>
		<layer id="177" name="__module.model.enc_p.encoder.attn_layers.0/aten::slice/Reshape_21" type="Const" version="opset1">
			<data element_type="i64" shape="1" offset="887828" size="8" />
			<output>
				<port id="0" precision="I64">
					<dim>1</dim>
				</port>
			</output>
		</layer>
		<layer id="178" name="Concat_650701" type="Concat" version="opset1">
			<data axis="0" />
			<input>
				<port id="0" precision="I64">
					<dim>1</dim>
				</port>
				<port id="1" precision="I64">
					<dim>1</dim>
				</port>
			</input>
			<output>
				<port id="2" precision="I64">
					<dim>2</dim>
				</port>
			</output>
		</layer>
		<layer id="179" name="Constant_650705" type="Const" version="opset1">
			<data element_type="i64" shape="2" offset="887836" size="16" />
			<output>
				<port id="0" precision="I64">
					<dim>2</dim>
				</port>
			</output>
		</layer>
		<layer id="180" name="Constant_650704" type="Const" version="opset1">
			<data element_type="i64" shape="2" offset="887852" size="16" />
			<output>
				<port id="0" precision="I64">
					<dim>2</dim>
				</port>
			</output>
		</layer>
		<layer id="181" name="__module.model.enc_p.encoder.attn_layers.0/aten::slice/Slice_5" type="Slice" version="opset8">
			<input>
				<port id="0" precision="FP32">
					<dim>1</dim>
					<dim>2</dim>
					<dim>-1</dim>
					<dim>-1</dim>
				</port>
				<port id="1" precision="I64">
					<dim>2</dim>
				</port>
				<port id="2" precision="I64">
					<dim>2</dim>
				</port>
				<port id="3" precision="I64">
					<dim>2</dim>
				</port>
				<port id="4" precision="I64">
					<dim>2</dim>
				</port>
			</input>
			<output>
				<port id="5" precision="FP32" names="262,scores_local.1">
					<dim>1</dim>
					<dim>2</dim>
					<dim>-1</dim>
					<dim>-1</dim>
				</port>
			</output>
		</layer>
		<layer id="182" name="__module.model.enc_p.encoder.attn_layers.0/aten::add/Add_2" type="Add" version="opset1">
			<data auto_broadcast="numpy" />
			<input>
				<port id="0" precision="FP32">
					<dim>1</dim>
					<dim>2</dim>
					<dim>-1</dim>
					<dim>-1</dim>
				</port>
				<port id="1" precision="FP32">
					<dim>1</dim>
					<dim>2</dim>
					<dim>-1</dim>
					<dim>-1</dim>
				</port>
			</input>
			<output>
				<port id="2" precision="FP32" names="263,scores.3">
					<dim>1</dim>
					<dim>2</dim>
					<dim>-1</dim>
					<dim>-1</dim>
				</port>
			</output>
		</layer>
		<layer id="183" name="__module.model.enc_p.encoder.attn_layers.0/aten::masked_fill/Select" type="Select" version="opset1">
			<data auto_broadcast="numpy" />
			<input>
				<port id="0" precision="BOOL">
					<dim>1</dim>
					<dim>1</dim>
					<dim>-1</dim>
					<dim>-1</dim>
				</port>
				<port id="1" precision="FP32" />
				<port id="2" precision="FP32">
					<dim>1</dim>
					<dim>2</dim>
					<dim>-1</dim>
					<dim>-1</dim>
				</port>
			</input>
			<output>
				<port id="3" precision="FP32" names="265,input.5">
					<dim>1</dim>
					<dim>2</dim>
					<dim>-1</dim>
					<dim>-1</dim>
				</port>
			</output>
		</layer>
		<layer id="184" name="__module.model.enc_p.encoder.attn_layers.0/aten::softmax/Softmax" type="SoftMax" version="opset8">
			<data axis="-1" />
			<input>
				<port id="0" precision="FP32">
					<dim>1</dim>
					<dim>2</dim>
					<dim>-1</dim>
					<dim>-1</dim>
				</port>
			</input>
			<output>
				<port id="1" precision="FP32" names="266,input.7">
					<dim>1</dim>
					<dim>2</dim>
					<dim>-1</dim>
					<dim>-1</dim>
				</port>
			</output>
		</layer>
		<layer id="185" name="self.model.enc_p.encoder.attn_layers.0.conv_v.weight_compressed" type="Const" version="opset1">
			<data element_type="f16" shape="192, 192, 1" offset="887868" size="73728" />
			<output>
				<port id="0" precision="FP16" names="self.model.enc_p.encoder.attn_layers.0.conv_v.weight">
					<dim>192</dim>
					<dim>192</dim>
					<dim>1</dim>
				</port>
			</output>
		</layer>
		<layer id="186" name="self.model.enc_p.encoder.attn_layers.0.conv_v.weight" type="Convert" version="opset1">
			<data destination_type="f32" />
			<rt_info>
				<attribute name="decompression" version="0" />
			</rt_info>
			<input>
				<port id="0" precision="FP16">
					<dim>192</dim>
					<dim>192</dim>
					<dim>1</dim>
				</port>
			</input>
			<output>
				<port id="1" precision="FP32">
					<dim>192</dim>
					<dim>192</dim>
					<dim>1</dim>
				</port>
			</output>
		</layer>
		<layer id="187" name="__module.model.enc_p.encoder.attn_layers.0.conv_v/aten::_convolution/Convolution" type="Convolution" version="opset1">
			<data strides="1" dilations="1" pads_begin="0" pads_end="0" auto_pad="explicit" />
			<input>
				<port id="0" precision="FP32">
					<dim>1</dim>
					<dim>192</dim>
					<dim>-1</dim>
				</port>
				<port id="1" precision="FP32">
					<dim>192</dim>
					<dim>192</dim>
					<dim>1</dim>
				</port>
			</input>
			<output>
				<port id="2" precision="FP32">
					<dim>1</dim>
					<dim>192</dim>
					<dim>-1</dim>
				</port>
			</output>
		</layer>
		<layer id="188" name="__module.model.enc_p.encoder.attn_layers.0.conv_v/aten::_convolution/Reshape_compressed" type="Const" version="opset1">
			<data element_type="f16" shape="1, 192, 1" offset="961596" size="384" />
			<output>
				<port id="0" precision="FP16">
					<dim>1</dim>
					<dim>192</dim>
					<dim>1</dim>
				</port>
			</output>
		</layer>
		<layer id="189" name="__module.model.enc_p.encoder.attn_layers.0.conv_v/aten::_convolution/Reshape" type="Convert" version="opset1">
			<data destination_type="f32" />
			<rt_info>
				<attribute name="decompression" version="0" />
			</rt_info>
			<input>
				<port id="0" precision="FP16">
					<dim>1</dim>
					<dim>192</dim>
					<dim>1</dim>
				</port>
			</input>
			<output>
				<port id="1" precision="FP32">
					<dim>1</dim>
					<dim>192</dim>
					<dim>1</dim>
				</port>
			</output>
		</layer>
		<layer id="190" name="__module.model.enc_p.encoder.attn_layers.0.conv_v/aten::_convolution/Add" type="Add" version="opset1">
			<data auto_broadcast="numpy" />
			<input>
				<port id="0" precision="FP32">
					<dim>1</dim>
					<dim>192</dim>
					<dim>-1</dim>
				</port>
				<port id="1" precision="FP32">
					<dim>1</dim>
					<dim>192</dim>
					<dim>1</dim>
				</port>
			</input>
			<output>
				<port id="2" precision="FP32" names="202,value.1">
					<dim>1</dim>
					<dim>192</dim>
					<dim>-1</dim>
				</port>
			</output>
		</layer>
		<layer id="191" name="Constant_683606" type="Const" version="opset1">
			<data element_type="i64" shape="4" offset="811834" size="32" />
			<rt_info>
				<attribute name="precise" version="0" />
			</rt_info>
			<output>
				<port id="0" precision="I64">
					<dim>4</dim>
				</port>
			</output>
		</layer>
		<layer id="192" name="__module.model.enc_p.encoder.attn_layers.0/aten::view/Reshape_4" type="Reshape" version="opset1">
			<data special_zero="true" />
			<input>
				<port id="0" precision="FP32">
					<dim>1</dim>
					<dim>192</dim>
					<dim>-1</dim>
				</port>
				<port id="1" precision="I64">
					<dim>4</dim>
				</port>
			</input>
			<output>
				<port id="2" precision="FP32" names="215">
					<dim>1</dim>
					<dim>2</dim>
					<dim>96</dim>
					<dim>-1</dim>
				</port>
			</output>
		</layer>
		<layer id="193" name="__module.model.enc_p.encoder.attn_layers.0/aten::matmul/MatMul_2" type="MatMul" version="opset1">
			<data transpose_a="false" transpose_b="true" />
			<input>
				<port id="0" precision="FP32">
					<dim>1</dim>
					<dim>2</dim>
					<dim>-1</dim>
					<dim>-1</dim>
				</port>
				<port id="1" precision="FP32">
					<dim>1</dim>
					<dim>2</dim>
					<dim>96</dim>
					<dim>-1</dim>
				</port>
			</input>
			<output>
				<port id="2" precision="FP32" names="268,output.1">
					<dim>1</dim>
					<dim>2</dim>
					<dim>-1</dim>
					<dim>96</dim>
				</port>
			</output>
		</layer>
		<layer id="194" name="__module.model.enc_p.encoder.attn_layers.0/aten::size/ShapeOf_7" type="ShapeOf" version="opset3">
			<data output_type="i64" />
			<input>
				<port id="0" precision="FP32">
					<dim>1</dim>
					<dim>2</dim>
					<dim>-1</dim>
					<dim>-1</dim>
				</port>
			</input>
			<output>
				<port id="1" precision="I64">
					<dim>4</dim>
				</port>
			</output>
		</layer>
		<layer id="195" name="Constant_682978" type="Const" version="opset1">
			<data element_type="i64" shape="" offset="737682" size="8" />
			<rt_info>
				<attribute name="precise" version="0" />
			</rt_info>
			<output>
				<port id="0" precision="I64" />
			</output>
		</layer>
		<layer id="196" name="Constant_682979" type="Const" version="opset1">
			<data element_type="i64" shape="" offset="737690" size="8" />
			<rt_info>
				<attribute name="precise" version="0" />
			</rt_info>
			<output>
				<port id="0" precision="I64" />
			</output>
		</layer>
		<layer id="197" name="Gather_682980" type="Gather" version="opset8">
			<data batch_dims="0" />
			<input>
				<port id="0" precision="I64">
					<dim>4</dim>
				</port>
				<port id="1" precision="I64" />
				<port id="2" precision="I64" />
			</input>
			<output>
				<port id="3" precision="I64" names="271" />
			</output>
		</layer>
		<layer id="198" name="Constant_183453" type="Const" version="opset1">
			<data element_type="i32" shape="" offset="0" size="4" />
			<rt_info>
				<attribute name="precise" version="0" />
			</rt_info>
			<output>
				<port id="0" precision="I32" />
			</output>
		</layer>
		<layer id="199" name="Unsqueeze_683789" type="Unsqueeze" version="opset1">
			<input>
				<port id="0" precision="I64" />
				<port id="1" precision="I32" />
			</input>
			<output>
				<port id="2" precision="I64">
					<dim>1</dim>
				</port>
			</output>
		</layer>
		<layer id="200" name="Constant_683791" type="Const" version="opset1">
			<data element_type="i64" shape="1" offset="737710" size="8" />
			<rt_info>
				<attribute name="precise" version="0" />
			</rt_info>
			<output>
				<port id="0" precision="I64">
					<dim>1</dim>
				</port>
			</output>
		</layer>
		<layer id="201" name="__module.model.enc_p.encoder.attn_layers.0/aten::sub/Subtract_5" type="Add" version="opset1">
			<data auto_broadcast="numpy" />
			<input>
				<port id="0" precision="I64">
					<dim>1</dim>
				</port>
				<port id="1" precision="I64">
					<dim>1</dim>
				</port>
			</input>
			<output>
				<port id="2" precision="I64" names="273,274,278">
					<dim>1</dim>
				</port>
			</output>
		</layer>
		<layer id="202" name="Concat_183462" type="Concat" version="opset1">
			<data axis="0" />
			<input>
				<port id="0" precision="I64">
					<dim>1</dim>
				</port>
				<port id="1" precision="I64">
					<dim>1</dim>
				</port>
				<port id="2" precision="I64">
					<dim>1</dim>
				</port>
				<port id="3" precision="I64">
					<dim>1</dim>
				</port>
				<port id="4" precision="I64">
					<dim>1</dim>
				</port>
				<port id="5" precision="I64">
					<dim>1</dim>
				</port>
				<port id="6" precision="I64">
					<dim>1</dim>
				</port>
				<port id="7" precision="I64">
					<dim>1</dim>
				</port>
			</input>
			<output>
				<port id="8" precision="I64">
					<dim>8</dim>
				</port>
			</output>
		</layer>
		<layer id="203" name="__module.model.enc_p.encoder.attn_layers.0/aten::pad/Range_2" type="Const" version="opset1">
			<data element_type="i32" shape="4" offset="961980" size="16" />
			<rt_info>
				<attribute name="precise" version="0" />
			</rt_info>
			<output>
				<port id="0" precision="I32">
					<dim>4</dim>
				</port>
			</output>
		</layer>
		<layer id="204" name="Constant_183471" type="Const" version="opset1">
			<data element_type="i32" shape="" offset="0" size="4" />
			<rt_info>
				<attribute name="precise" version="0" />
			</rt_info>
			<output>
				<port id="0" precision="I32" />
			</output>
		</layer>
		<layer id="205" name="__module.model.enc_p.encoder.attn_layers.0/aten::pad/Gather_2" type="Gather" version="opset8">
			<data batch_dims="0" />
			<input>
				<port id="0" precision="I64">
					<dim>8</dim>
				</port>
				<port id="1" precision="I32">
					<dim>4</dim>
				</port>
				<port id="2" precision="I32" />
			</input>
			<output>
				<port id="3" precision="I64">
					<dim>4</dim>
				</port>
			</output>
		</layer>
		<layer id="206" name="__module.model.enc_p.encoder.attn_layers.0/aten::pad/Range_4_2" type="Const" version="opset1">
			<data element_type="i32" shape="4" offset="961996" size="16" />
			<rt_info>
				<attribute name="precise" version="0" />
			</rt_info>
			<output>
				<port id="0" precision="I32">
					<dim>4</dim>
				</port>
			</output>
		</layer>
		<layer id="207" name="Constant_183489" type="Const" version="opset1">
			<data element_type="i32" shape="" offset="0" size="4" />
			<rt_info>
				<attribute name="precise" version="0" />
			</rt_info>
			<output>
				<port id="0" precision="I32" />
			</output>
		</layer>
		<layer id="208" name="__module.model.enc_p.encoder.attn_layers.0/aten::pad/Gather_5_2" type="Gather" version="opset8">
			<data batch_dims="0" />
			<input>
				<port id="0" precision="I64">
					<dim>8</dim>
				</port>
				<port id="1" precision="I32">
					<dim>4</dim>
				</port>
				<port id="2" precision="I32" />
			</input>
			<output>
				<port id="3" precision="I64">
					<dim>4</dim>
				</port>
			</output>
		</layer>
		<layer id="209" name="__module.model.enc_p.encoder.attn_layers.0/aten::pad/ConvertLike_11_2_compressed" type="Const" version="opset1">
			<data element_type="f16" shape="" offset="737718" size="2" />
			<output>
				<port id="0" precision="FP16" />
			</output>
		</layer>
		<layer id="210" name="__module.model.enc_p.encoder.attn_layers.0/aten::pad/ConvertLike_11_2" type="Convert" version="opset1">
			<data destination_type="f32" />
			<rt_info>
				<attribute name="decompression" version="0" />
			</rt_info>
			<input>
				<port id="0" precision="FP16" />
			</input>
			<output>
				<port id="1" precision="FP32" />
			</output>
		</layer>
		<layer id="211" name="__module.model.enc_p.encoder.attn_layers.0/aten::pad_2" type="Pad" version="opset1">
			<data pad_mode="constant" />
			<input>
				<port id="0" precision="FP32">
					<dim>1</dim>
					<dim>2</dim>
					<dim>-1</dim>
					<dim>-1</dim>
				</port>
				<port id="1" precision="I64">
					<dim>4</dim>
				</port>
				<port id="2" precision="I64">
					<dim>4</dim>
				</port>
				<port id="3" precision="FP32" />
			</input>
			<output>
				<port id="4" precision="FP32" names="276,x.15">
					<dim>1</dim>
					<dim>2</dim>
					<dim>-1</dim>
					<dim>-1</dim>
				</port>
			</output>
		</layer>
		<layer id="212" name="Constant_683607" type="Const" version="opset1">
			<data element_type="i64" shape="3" offset="887788" size="24" />
			<rt_info>
				<attribute name="precise" version="0" />
			</rt_info>
			<output>
				<port id="0" precision="I64">
					<dim>3</dim>
				</port>
			</output>
		</layer>
		<layer id="213" name="__module.model.enc_p.encoder.attn_layers.0/aten::view/Reshape_5" type="Reshape" version="opset1">
			<data special_zero="true" />
			<input>
				<port id="0" precision="FP32">
					<dim>1</dim>
					<dim>2</dim>
					<dim>-1</dim>
					<dim>-1</dim>
				</port>
				<port id="1" precision="I64">
					<dim>3</dim>
				</port>
			</input>
			<output>
				<port id="2" precision="FP32" names="283,input.9">
					<dim>1</dim>
					<dim>2</dim>
					<dim>-1</dim>
				</port>
			</output>
		</layer>
		<layer id="214" name="Constant_745467" type="Const" version="opset1">
			<data element_type="i64" shape="1" offset="737710" size="8" />
			<rt_info>
				<attribute name="precise" version="0" />
			</rt_info>
			<output>
				<port id="0" precision="I64">
					<dim>1</dim>
				</port>
			</output>
		</layer>
		<layer id="215" name="Reshape_682983" type="Reshape" version="opset1">
			<data special_zero="false" />
			<input>
				<port id="0" precision="I64" />
				<port id="1" precision="I64">
					<dim>1</dim>
				</port>
			</input>
			<output>
				<port id="2" precision="I64">
					<dim>1</dim>
				</port>
			</output>
		</layer>
		<layer id="216" name="Concat_183661" type="Concat" version="opset1">
			<data axis="0" />
			<input>
				<port id="0" precision="I64">
					<dim>1</dim>
				</port>
				<port id="1" precision="I64">
					<dim>1</dim>
				</port>
				<port id="2" precision="I64">
					<dim>1</dim>
				</port>
				<port id="3" precision="I64">
					<dim>1</dim>
				</port>
				<port id="4" precision="I64">
					<dim>1</dim>
				</port>
				<port id="5" precision="I64">
					<dim>1</dim>
				</port>
			</input>
			<output>
				<port id="6" precision="I64">
					<dim>6</dim>
				</port>
			</output>
		</layer>
		<layer id="217" name="__module.model.enc_p.encoder.attn_layers.0/aten::pad/Range_3" type="Const" version="opset1">
			<data element_type="i32" shape="3" offset="887732" size="12" />
			<rt_info>
				<attribute name="precise" version="0" />
			</rt_info>
			<output>
				<port id="0" precision="I32">
					<dim>3</dim>
				</port>
			</output>
		</layer>
		<layer id="218" name="Constant_183670" type="Const" version="opset1">
			<data element_type="i32" shape="" offset="0" size="4" />
			<rt_info>
				<attribute name="precise" version="0" />
			</rt_info>
			<output>
				<port id="0" precision="I32" />
			</output>
		</layer>
		<layer id="219" name="__module.model.enc_p.encoder.attn_layers.0/aten::pad/Gather_3" type="Gather" version="opset8">
			<data batch_dims="0" />
			<input>
				<port id="0" precision="I64">
					<dim>6</dim>
				</port>
				<port id="1" precision="I32">
					<dim>3</dim>
				</port>
				<port id="2" precision="I32" />
			</input>
			<output>
				<port id="3" precision="I64">
					<dim>3</dim>
				</port>
			</output>
		</layer>
		<layer id="220" name="__module.model.enc_p.encoder.attn_layers.0/aten::pad/Range_4_3" type="Const" version="opset1">
			<data element_type="i32" shape="3" offset="887744" size="12" />
			<rt_info>
				<attribute name="precise" version="0" />
			</rt_info>
			<output>
				<port id="0" precision="I32">
					<dim>3</dim>
				</port>
			</output>
		</layer>
		<layer id="221" name="Constant_183688" type="Const" version="opset1">
			<data element_type="i32" shape="" offset="0" size="4" />
			<rt_info>
				<attribute name="precise" version="0" />
			</rt_info>
			<output>
				<port id="0" precision="I32" />
			</output>
		</layer>
		<layer id="222" name="__module.model.enc_p.encoder.attn_layers.0/aten::pad/Gather_5_3" type="Gather" version="opset8">
			<data batch_dims="0" />
			<input>
				<port id="0" precision="I64">
					<dim>6</dim>
				</port>
				<port id="1" precision="I32">
					<dim>3</dim>
				</port>
				<port id="2" precision="I32" />
			</input>
			<output>
				<port id="3" precision="I64">
					<dim>3</dim>
				</port>
			</output>
		</layer>
		<layer id="223" name="__module.model.enc_p.encoder.attn_layers.0/aten::pad/ConvertLike_11_3_compressed" type="Const" version="opset1">
			<data element_type="f16" shape="" offset="737718" size="2" />
			<output>
				<port id="0" precision="FP16" />
			</output>
		</layer>
		<layer id="224" name="__module.model.enc_p.encoder.attn_layers.0/aten::pad/ConvertLike_11_3" type="Convert" version="opset1">
			<data destination_type="f32" />
			<rt_info>
				<attribute name="decompression" version="0" />
			</rt_info>
			<input>
				<port id="0" precision="FP16" />
			</input>
			<output>
				<port id="1" precision="FP32" />
			</output>
		</layer>
		<layer id="225" name="__module.model.enc_p.encoder.attn_layers.0/aten::pad_3" type="Pad" version="opset1">
			<data pad_mode="constant" />
			<input>
				<port id="0" precision="FP32">
					<dim>1</dim>
					<dim>2</dim>
					<dim>-1</dim>
				</port>
				<port id="1" precision="I64">
					<dim>3</dim>
				</port>
				<port id="2" precision="I64">
					<dim>3</dim>
				</port>
				<port id="3" precision="FP32" />
			</input>
			<output>
				<port id="4" precision="FP32" names="285,x_flat.3">
					<dim>1</dim>
					<dim>2</dim>
					<dim>-1</dim>
				</port>
			</output>
		</layer>
		<layer id="226" name="Constant_628277" type="Const" version="opset1">
			<data element_type="i64" shape="2" offset="887812" size="16" />
			<rt_info>
				<attribute name="precise" version="0" />
			</rt_info>
			<output>
				<port id="0" precision="I64">
					<dim>2</dim>
				</port>
			</output>
		</layer>
		<layer id="227" name="Constant_628278" type="Const" version="opset1">
			<data element_type="i64" shape="" offset="737690" size="8" />
			<rt_info>
				<attribute name="precise" version="0" />
			</rt_info>
			<output>
				<port id="0" precision="I64" />
			</output>
		</layer>
		<layer id="228" name="Gather_628279" type="Gather" version="opset8">
			<data batch_dims="0" />
			<input>
				<port id="0" precision="I64">
					<dim>4</dim>
				</port>
				<port id="1" precision="I64">
					<dim>2</dim>
				</port>
				<port id="2" precision="I64" />
			</input>
			<output>
				<port id="3" precision="I64">
					<dim>2</dim>
				</port>
			</output>
		</layer>
		<layer id="229" name="Constant_682711" type="Const" version="opset1">
			<data element_type="i64" shape="1" offset="737682" size="8" />
			<rt_info>
				<attribute name="precise" version="0" />
			</rt_info>
			<output>
				<port id="0" precision="I64">
					<dim>1</dim>
				</port>
			</output>
		</layer>
		<layer id="230" name="__module.model.enc_p.encoder.attn_layers.0/aten::mul/Multiply_5" type="Multiply" version="opset1">
			<data auto_broadcast="numpy" />
			<input>
				<port id="0" precision="I64">
					<dim>1</dim>
				</port>
				<port id="1" precision="I64">
					<dim>1</dim>
				</port>
			</input>
			<output>
				<port id="2" precision="I64" names="286,287">
					<dim>1</dim>
				</port>
			</output>
		</layer>
		<layer id="231" name="__module.model.enc_p.encoder.attn_layers.0/prim::ListConstruct/Concat_6" type="Concat" version="opset1">
			<data axis="0" />
			<input>
				<port id="0" precision="I64">
					<dim>2</dim>
				</port>
				<port id="1" precision="I64">
					<dim>1</dim>
				</port>
				<port id="2" precision="I64">
					<dim>1</dim>
				</port>
			</input>
			<output>
				<port id="3" precision="I64" names="288">
					<dim>4</dim>
				</port>
			</output>
		</layer>
		<layer id="232" name="__module.model.enc_p.encoder.attn_layers.0/aten::view/Reshape_6" type="Reshape" version="opset1">
			<data special_zero="false" />
			<input>
				<port id="0" precision="FP32">
					<dim>1</dim>
					<dim>2</dim>
					<dim>-1</dim>
				</port>
				<port id="1" precision="I64">
					<dim>4</dim>
				</port>
			</input>
			<output>
				<port id="2" precision="FP32" names="289,290,291,292">
					<dim>1</dim>
					<dim>2</dim>
					<dim>-1</dim>
					<dim>-1</dim>
				</port>
			</output>
		</layer>
		<layer id="233" name="__module.model.enc_p.encoder.attn_layers.0/aten::slice/Reshape_36" type="Const" version="opset1">
			<data element_type="i64" shape="1" offset="737702" size="8" />
			<output>
				<port id="0" precision="I64">
					<dim>1</dim>
				</port>
			</output>
		</layer>
		<layer id="234" name="__module.model.enc_p.encoder.attn_layers.0/aten::slice/Reshape_37" type="Const" version="opset1">
			<data element_type="i64" shape="1" offset="887828" size="8" />
			<output>
				<port id="0" precision="I64">
					<dim>1</dim>
				</port>
			</output>
		</layer>
		<layer id="235" name="__module.model.enc_p.encoder.attn_layers.0/aten::slice/Reshape_38" type="Const" version="opset1">
			<data element_type="i64" shape="1" offset="737702" size="8" />
			<output>
				<port id="0" precision="I64">
					<dim>1</dim>
				</port>
			</output>
		</layer>
		<layer id="236" name="__module.model.enc_p.encoder.attn_layers.0/aten::slice/Reshape_39" type="Const" version="opset1">
			<data element_type="i64" shape="1" offset="962012" size="8" />
			<output>
				<port id="0" precision="I64">
					<dim>1</dim>
				</port>
			</output>
		</layer>
		<layer id="237" name="__module.model.enc_p.encoder.attn_layers.0/aten::slice/Slice_9" type="Slice" version="opset8">
			<input>
				<port id="0" precision="FP32">
					<dim>1</dim>
					<dim>2</dim>
					<dim>-1</dim>
					<dim>-1</dim>
				</port>
				<port id="1" precision="I64">
					<dim>1</dim>
				</port>
				<port id="2" precision="I64">
					<dim>1</dim>
				</port>
				<port id="3" precision="I64">
					<dim>1</dim>
				</port>
				<port id="4" precision="I64">
					<dim>1</dim>
				</port>
			</input>
			<output>
				<port id="5" precision="FP32" names="293">
					<dim>1</dim>
					<dim>2</dim>
					<dim>-1</dim>
					<dim>-1</dim>
				</port>
			</output>
		</layer>
		<layer id="238" name="self.model.enc_p.encoder.attn_layers.0.emb_rel_v_compressed" type="Const" version="opset1">
			<data element_type="f16" shape="1, 9, 96" offset="962020" size="1728" />
			<output>
				<port id="0" precision="FP16" names="self.model.enc_p.encoder.attn_layers.0.emb_rel_v">
					<dim>1</dim>
					<dim>9</dim>
					<dim>96</dim>
				</port>
			</output>
		</layer>
		<layer id="239" name="self.model.enc_p.encoder.attn_layers.0.emb_rel_v" type="Convert" version="opset1">
			<data destination_type="f32" />
			<rt_info>
				<attribute name="decompression" version="0" />
			</rt_info>
			<input>
				<port id="0" precision="FP16">
					<dim>1</dim>
					<dim>9</dim>
					<dim>96</dim>
				</port>
			</input>
			<output>
				<port id="1" precision="FP32">
					<dim>1</dim>
					<dim>9</dim>
					<dim>96</dim>
				</port>
			</output>
		</layer>
		<layer id="240" name="__module.model.enc_p.encoder.attn_layers.0/aten::pad/ConvertLike_11_4_compressed" type="Const" version="opset1">
			<data element_type="f16" shape="" offset="737718" size="2" />
			<output>
				<port id="0" precision="FP16" />
			</output>
		</layer>
		<layer id="241" name="__module.model.enc_p.encoder.attn_layers.0/aten::pad/ConvertLike_11_4" type="Convert" version="opset1">
			<data destination_type="f32" />
			<rt_info>
				<attribute name="decompression" version="0" />
			</rt_info>
			<input>
				<port id="0" precision="FP16" />
			</input>
			<output>
				<port id="1" precision="FP32" />
			</output>
		</layer>
		<layer id="242" name="__module.model.enc_p.encoder.attn_layers.0/aten::pad_4" type="Pad" version="opset1">
			<data pad_mode="constant" />
			<input>
				<port id="0" precision="FP32">
					<dim>1</dim>
					<dim>9</dim>
					<dim>96</dim>
				</port>
				<port id="1" precision="I64">
					<dim>3</dim>
				</port>
				<port id="2" precision="I64">
					<dim>3</dim>
				</port>
				<port id="3" precision="FP32" />
			</input>
			<output>
				<port id="4" precision="FP32" names="302,303,padded_relative_embeddings.3">
					<dim>1</dim>
					<dim>-1</dim>
					<dim>96</dim>
				</port>
			</output>
		</layer>
		<layer id="243" name="__module.model.enc_p.encoder.attn_layers.0/aten::slice/Reshape_44" type="Const" version="opset1">
			<data element_type="i64" shape="1" offset="737690" size="8" />
			<output>
				<port id="0" precision="I64">
					<dim>1</dim>
				</port>
			</output>
		</layer>
		<layer id="244" name="__module.model.enc_p.encoder.attn_layers.0/aten::slice/Reshape_46" type="Const" version="opset1">
			<data element_type="i64" shape="1" offset="737702" size="8" />
			<output>
				<port id="0" precision="I64">
					<dim>1</dim>
				</port>
			</output>
		</layer>
		<layer id="245" name="__module.model.enc_p.encoder.attn_layers.0/aten::slice/Reshape_47" type="Const" version="opset1">
			<data element_type="i64" shape="1" offset="737702" size="8" />
			<output>
				<port id="0" precision="I64">
					<dim>1</dim>
				</port>
			</output>
		</layer>
		<layer id="246" name="__module.model.enc_p.encoder.attn_layers.0/aten::slice/Slice_11" type="Slice" version="opset8">
			<input>
				<port id="0" precision="FP32">
					<dim>1</dim>
					<dim>-1</dim>
					<dim>96</dim>
				</port>
				<port id="1" precision="I64">
					<dim>1</dim>
				</port>
				<port id="2" precision="I64">
					<dim>1</dim>
				</port>
				<port id="3" precision="I64">
					<dim>1</dim>
				</port>
				<port id="4" precision="I64">
					<dim>1</dim>
				</port>
			</input>
			<output>
				<port id="5" precision="FP32" names="304,y.3">
					<dim>1</dim>
					<dim>-1</dim>
					<dim>96</dim>
				</port>
			</output>
		</layer>
		<layer id="247" name="__module.model.enc_p.encoder.attn_layers.0/aten::unsqueeze/Unsqueeze_1" type="Unsqueeze" version="opset1">
			<input>
				<port id="0" precision="FP32">
					<dim>1</dim>
					<dim>-1</dim>
					<dim>96</dim>
				</port>
				<port id="1" precision="I64" />
			</input>
			<output>
				<port id="2" precision="FP32" names="305">
					<dim>1</dim>
					<dim>1</dim>
					<dim>-1</dim>
					<dim>96</dim>
				</port>
			</output>
		</layer>
		<layer id="248" name="__module.model.enc_p.encoder.attn_layers.0/aten::matmul/MatMul_3" type="MatMul" version="opset1">
			<data transpose_a="false" transpose_b="false" />
			<input>
				<port id="0" precision="FP32">
					<dim>1</dim>
					<dim>2</dim>
					<dim>-1</dim>
					<dim>-1</dim>
				</port>
				<port id="1" precision="FP32">
					<dim>1</dim>
					<dim>1</dim>
					<dim>-1</dim>
					<dim>96</dim>
				</port>
			</input>
			<output>
				<port id="2" precision="FP32" names="306">
					<dim>1</dim>
					<dim>2</dim>
					<dim>-1</dim>
					<dim>96</dim>
				</port>
			</output>
		</layer>
		<layer id="249" name="__module.model.enc_p.encoder.attn_layers.0/aten::add/Add_5" type="Add" version="opset1">
			<data auto_broadcast="numpy" />
			<input>
				<port id="0" precision="FP32">
					<dim>1</dim>
					<dim>2</dim>
					<dim>-1</dim>
					<dim>96</dim>
				</port>
				<port id="1" precision="FP32">
					<dim>1</dim>
					<dim>2</dim>
					<dim>-1</dim>
					<dim>96</dim>
				</port>
			</input>
			<output>
				<port id="2" precision="FP32" names="307,output.3">
					<dim>1</dim>
					<dim>2</dim>
					<dim>-1</dim>
					<dim>96</dim>
				</port>
			</output>
		</layer>
		<layer id="250" name="__module.model.enc_p.encoder.attn_layers.0/aten::transpose/ScatterElementsUpdate_5" type="Const" version="opset1">
			<data element_type="i32" shape="4" offset="811866" size="16" />
			<output>
				<port id="0" precision="I32">
					<dim>4</dim>
				</port>
			</output>
		</layer>
		<layer id="251" name="__module.model.enc_p.encoder.attn_layers.0/aten::transpose/Transpose_5" type="Transpose" version="opset1">
			<input>
				<port id="0" precision="FP32">
					<dim>1</dim>
					<dim>2</dim>
					<dim>-1</dim>
					<dim>96</dim>
				</port>
				<port id="1" precision="I32">
					<dim>4</dim>
				</port>
			</input>
			<output>
				<port id="2" precision="FP32" names="308">
					<dim>1</dim>
					<dim>2</dim>
					<dim>96</dim>
					<dim>-1</dim>
				</port>
			</output>
		</layer>
		<layer id="252" name="Constant_682958" type="Const" version="opset1">
			<data element_type="i64" shape="1" offset="737690" size="8" />
			<rt_info>
				<attribute name="precise" version="0" />
			</rt_info>
			<output>
				<port id="0" precision="I64">
					<dim>1</dim>
				</port>
			</output>
		</layer>
		<layer id="253" name="Constant_682959" type="Const" version="opset1">
			<data element_type="i64" shape="" offset="737690" size="8" />
			<rt_info>
				<attribute name="precise" version="0" />
			</rt_info>
			<output>
				<port id="0" precision="I64" />
			</output>
		</layer>
		<layer id="254" name="Gather_682960" type="Gather" version="opset8">
			<data batch_dims="0" />
			<input>
				<port id="0" precision="I64">
					<dim>3</dim>
				</port>
				<port id="1" precision="I64">
					<dim>1</dim>
				</port>
				<port id="2" precision="I64" />
			</input>
			<output>
				<port id="3" precision="I64" names="203">
					<dim>1</dim>
				</port>
			</output>
		</layer>
		<layer id="255" name="__module.model.enc_p.encoder.attn_layers.0/prim::ListConstruct/Reshape_0_7" type="Const" version="opset1">
			<data element_type="i64" shape="1" offset="963748" size="8" />
			<rt_info>
				<attribute name="precise" version="0" />
			</rt_info>
			<output>
				<port id="0" precision="I64">
					<dim>1</dim>
				</port>
			</output>
		</layer>
		<layer id="256" name="__module.model.enc_p.encoder.attn_layers.0/prim::ListConstruct/Concat_7" type="Concat" version="opset1">
			<data axis="0" />
			<input>
				<port id="0" precision="I64">
					<dim>1</dim>
				</port>
				<port id="1" precision="I64">
					<dim>1</dim>
				</port>
				<port id="2" precision="I64">
					<dim>1</dim>
				</port>
			</input>
			<output>
				<port id="3" precision="I64" names="310">
					<dim>3</dim>
				</port>
			</output>
		</layer>
		<layer id="257" name="__module.model.enc_p.encoder.attn_layers.0/aten::view/Reshape_7" type="Reshape" version="opset1">
			<data special_zero="false" />
			<input>
				<port id="0" precision="FP32">
					<dim>1</dim>
					<dim>2</dim>
					<dim>96</dim>
					<dim>-1</dim>
				</port>
				<port id="1" precision="I64">
					<dim>3</dim>
				</port>
			</input>
			<output>
				<port id="2" precision="FP32" names="311">
					<dim>1</dim>
					<dim>192</dim>
					<dim>-1</dim>
				</port>
			</output>
		</layer>
		<layer id="258" name="self.model.enc_p.encoder.attn_layers.0.conv_o.weight_compressed" type="Const" version="opset1">
			<data element_type="f16" shape="192, 192, 1" offset="963756" size="73728" />
			<output>
				<port id="0" precision="FP16" names="self.model.enc_p.encoder.attn_layers.0.conv_o.weight">
					<dim>192</dim>
					<dim>192</dim>
					<dim>1</dim>
				</port>
			</output>
		</layer>
		<layer id="259" name="self.model.enc_p.encoder.attn_layers.0.conv_o.weight" type="Convert" version="opset1">
			<data destination_type="f32" />
			<rt_info>
				<attribute name="decompression" version="0" />
			</rt_info>
			<input>
				<port id="0" precision="FP16">
					<dim>192</dim>
					<dim>192</dim>
					<dim>1</dim>
				</port>
			</input>
			<output>
				<port id="1" precision="FP32">
					<dim>192</dim>
					<dim>192</dim>
					<dim>1</dim>
				</port>
			</output>
		</layer>
		<layer id="260" name="__module.model.enc_p.encoder.attn_layers.0.conv_o/aten::_convolution/Convolution" type="Convolution" version="opset1">
			<data strides="1" dilations="1" pads_begin="0" pads_end="0" auto_pad="explicit" />
			<input>
				<port id="0" precision="FP32">
					<dim>1</dim>
					<dim>192</dim>
					<dim>-1</dim>
				</port>
				<port id="1" precision="FP32">
					<dim>192</dim>
					<dim>192</dim>
					<dim>1</dim>
				</port>
			</input>
			<output>
				<port id="2" precision="FP32">
					<dim>1</dim>
					<dim>192</dim>
					<dim>-1</dim>
				</port>
			</output>
		</layer>
		<layer id="261" name="__module.model.enc_p.encoder.attn_layers.0.conv_o/aten::_convolution/Reshape_compressed" type="Const" version="opset1">
			<data element_type="f16" shape="1, 192, 1" offset="1037484" size="384" />
			<output>
				<port id="0" precision="FP16">
					<dim>1</dim>
					<dim>192</dim>
					<dim>1</dim>
				</port>
			</output>
		</layer>
		<layer id="262" name="__module.model.enc_p.encoder.attn_layers.0.conv_o/aten::_convolution/Reshape" type="Convert" version="opset1">
			<data destination_type="f32" />
			<rt_info>
				<attribute name="decompression" version="0" />
			</rt_info>
			<input>
				<port id="0" precision="FP16">
					<dim>1</dim>
					<dim>192</dim>
					<dim>1</dim>
				</port>
			</input>
			<output>
				<port id="1" precision="FP32">
					<dim>1</dim>
					<dim>192</dim>
					<dim>1</dim>
				</port>
			</output>
		</layer>
		<layer id="263" name="__module.model.enc_p.encoder.attn_layers.0.conv_o/aten::_convolution/Add" type="Add" version="opset1">
			<data auto_broadcast="numpy" />
			<input>
				<port id="0" precision="FP32">
					<dim>1</dim>
					<dim>192</dim>
					<dim>-1</dim>
				</port>
				<port id="1" precision="FP32">
					<dim>1</dim>
					<dim>192</dim>
					<dim>1</dim>
				</port>
			</input>
			<output>
				<port id="2" precision="FP32" names="318,input.13">
					<dim>1</dim>
					<dim>192</dim>
					<dim>-1</dim>
				</port>
			</output>
		</layer>
		<layer id="264" name="__module.model.enc_p.encoder/aten::add/Add" type="Add" version="opset1">
			<data auto_broadcast="numpy" />
			<input>
				<port id="0" precision="FP32">
					<dim>1</dim>
					<dim>192</dim>
					<dim>-1</dim>
				</port>
				<port id="1" precision="FP32">
					<dim>1</dim>
					<dim>192</dim>
					<dim>-1</dim>
				</port>
			</input>
			<output>
				<port id="2" precision="FP32" names="320,x.19">
					<dim>1</dim>
					<dim>192</dim>
					<dim>-1</dim>
				</port>
			</output>
		</layer>
		<layer id="265" name="__module.model.enc_p.encoder.norm_layers_1.0/aten::transpose/ScatterElementsUpdate" type="Const" version="opset1">
			<data element_type="i32" shape="3" offset="442372" size="12" />
			<output>
				<port id="0" precision="I32">
					<dim>3</dim>
				</port>
			</output>
		</layer>
		<layer id="266" name="__module.model.enc_p.encoder.norm_layers_1.0/aten::transpose/Transpose" type="Transpose" version="opset1">
			<input>
				<port id="0" precision="FP32">
					<dim>1</dim>
					<dim>192</dim>
					<dim>-1</dim>
				</port>
				<port id="1" precision="I32">
					<dim>3</dim>
				</port>
			</input>
			<output>
				<port id="2" precision="FP32" names="323">
					<dim>1</dim>
					<dim>-1</dim>
					<dim>192</dim>
				</port>
			</output>
		</layer>
		<layer id="267" name="__module.model.enc_p.encoder.norm_layers_1.0/aten::layer_norm/Multiply" type="Const" version="opset1">
			<data element_type="i32" shape="1" offset="1037868" size="4" />
			<output>
				<port id="0" precision="I32">
					<dim>1</dim>
				</port>
			</output>
		</layer>
		<layer id="268" name="__module.model.enc_p.encoder.norm_layers_1.0/aten::layer_norm/MVN" type="MVN" version="opset6">
			<data eps="9.9999997473787516e-06" normalize_variance="true" eps_mode="INSIDE_SQRT" />
			<input>
				<port id="0" precision="FP32">
					<dim>1</dim>
					<dim>-1</dim>
					<dim>192</dim>
				</port>
				<port id="1" precision="I32">
					<dim>1</dim>
				</port>
			</input>
			<output>
				<port id="2" precision="FP32">
					<dim>1</dim>
					<dim>-1</dim>
					<dim>192</dim>
				</port>
			</output>
		</layer>
		<layer id="269" name="Constant_658474_compressed" type="Const" version="opset1">
			<data element_type="f16" shape="1, 1, 192" offset="1037872" size="384" />
			<output>
				<port id="0" precision="FP16">
					<dim>1</dim>
					<dim>1</dim>
					<dim>192</dim>
				</port>
			</output>
		</layer>
		<layer id="270" name="Constant_658474" type="Convert" version="opset1">
			<data destination_type="f32" />
			<rt_info>
				<attribute name="decompression" version="0" />
			</rt_info>
			<input>
				<port id="0" precision="FP16">
					<dim>1</dim>
					<dim>1</dim>
					<dim>192</dim>
				</port>
			</input>
			<output>
				<port id="1" precision="FP32">
					<dim>1</dim>
					<dim>1</dim>
					<dim>192</dim>
				</port>
			</output>
		</layer>
		<layer id="271" name="__module.model.enc_p.encoder.norm_layers_1.0/aten::layer_norm/Multiply_1" type="Multiply" version="opset1">
			<data auto_broadcast="numpy" />
			<input>
				<port id="0" precision="FP32">
					<dim>1</dim>
					<dim>-1</dim>
					<dim>192</dim>
				</port>
				<port id="1" precision="FP32">
					<dim>1</dim>
					<dim>1</dim>
					<dim>192</dim>
				</port>
			</input>
			<output>
				<port id="2" precision="FP32">
					<dim>1</dim>
					<dim>-1</dim>
					<dim>192</dim>
				</port>
			</output>
		</layer>
		<layer id="272" name="Constant_658475_compressed" type="Const" version="opset1">
			<data element_type="f16" shape="1, 1, 192" offset="1038256" size="384" />
			<output>
				<port id="0" precision="FP16">
					<dim>1</dim>
					<dim>1</dim>
					<dim>192</dim>
				</port>
			</output>
		</layer>
		<layer id="273" name="Constant_658475" type="Convert" version="opset1">
			<data destination_type="f32" />
			<rt_info>
				<attribute name="decompression" version="0" />
			</rt_info>
			<input>
				<port id="0" precision="FP16">
					<dim>1</dim>
					<dim>1</dim>
					<dim>192</dim>
				</port>
			</input>
			<output>
				<port id="1" precision="FP32">
					<dim>1</dim>
					<dim>1</dim>
					<dim>192</dim>
				</port>
			</output>
		</layer>
		<layer id="274" name="__module.model.enc_p.encoder.norm_layers_1.0/aten::layer_norm/Add" type="Add" version="opset1">
			<data auto_broadcast="numpy" />
			<input>
				<port id="0" precision="FP32">
					<dim>1</dim>
					<dim>-1</dim>
					<dim>192</dim>
				</port>
				<port id="1" precision="FP32">
					<dim>1</dim>
					<dim>1</dim>
					<dim>192</dim>
				</port>
			</input>
			<output>
				<port id="2" precision="FP32" names="325,x.21">
					<dim>1</dim>
					<dim>-1</dim>
					<dim>192</dim>
				</port>
			</output>
		</layer>
		<layer id="275" name="__module.model.enc_p.encoder.norm_layers_1.0/aten::transpose/ScatterElementsUpdate_1" type="Const" version="opset1">
			<data element_type="i32" shape="3" offset="442372" size="12" />
			<output>
				<port id="0" precision="I32">
					<dim>3</dim>
				</port>
			</output>
		</layer>
		<layer id="276" name="__module.model.enc_p.encoder.norm_layers_1.0/aten::transpose/Transpose_1" type="Transpose" version="opset1">
			<input>
				<port id="0" precision="FP32">
					<dim>1</dim>
					<dim>-1</dim>
					<dim>192</dim>
				</port>
				<port id="1" precision="I32">
					<dim>3</dim>
				</port>
			</input>
			<output>
				<port id="2" precision="FP32" names="326,x.23">
					<dim>1</dim>
					<dim>192</dim>
					<dim>-1</dim>
				</port>
			</output>
		</layer>
		<layer id="277" name="__module.model.enc_p.encoder.ffn_layers.0/aten::mul/Multiply" type="Multiply" version="opset1">
			<data auto_broadcast="numpy" />
			<input>
				<port id="0" precision="FP32">
					<dim>1</dim>
					<dim>192</dim>
					<dim>-1</dim>
				</port>
				<port id="1" precision="FP32">
					<dim>1</dim>
					<dim>1</dim>
					<dim>-1</dim>
				</port>
			</input>
			<output>
				<port id="2" precision="FP32" names="329,input.15">
					<dim>1</dim>
					<dim>192</dim>
					<dim>-1</dim>
				</port>
			</output>
		</layer>
		<layer id="278" name="self.model.enc_p.encoder.ffn_layers.0.conv_1.weight_compressed" type="Const" version="opset1">
			<data element_type="f16" shape="768, 192, 3" offset="1038640" size="884736" />
			<output>
				<port id="0" precision="FP16" names="self.model.enc_p.encoder.ffn_layers.0.conv_1.weight">
					<dim>768</dim>
					<dim>192</dim>
					<dim>3</dim>
				</port>
			</output>
		</layer>
		<layer id="279" name="self.model.enc_p.encoder.ffn_layers.0.conv_1.weight" type="Convert" version="opset1">
			<data destination_type="f32" />
			<rt_info>
				<attribute name="decompression" version="0" />
			</rt_info>
			<input>
				<port id="0" precision="FP16">
					<dim>768</dim>
					<dim>192</dim>
					<dim>3</dim>
				</port>
			</input>
			<output>
				<port id="1" precision="FP32">
					<dim>768</dim>
					<dim>192</dim>
					<dim>3</dim>
				</port>
			</output>
		</layer>
		<layer id="280" name="__module.model.enc_p.encoder.ffn_layers.0.conv_1/aten::_convolution/Convolution" type="Convolution" version="opset1">
			<data strides="1" dilations="1" pads_begin="1" pads_end="1" auto_pad="explicit" />
			<input>
				<port id="0" precision="FP32">
					<dim>1</dim>
					<dim>192</dim>
					<dim>-1</dim>
				</port>
				<port id="1" precision="FP32">
					<dim>768</dim>
					<dim>192</dim>
					<dim>3</dim>
				</port>
			</input>
			<output>
				<port id="2" precision="FP32">
					<dim>1</dim>
					<dim>768</dim>
					<dim>-1</dim>
				</port>
			</output>
		</layer>
		<layer id="281" name="__module.model.enc_p.encoder.ffn_layers.0.conv_1/aten::_convolution/Reshape_compressed" type="Const" version="opset1">
			<data element_type="f16" shape="1, 768, 1" offset="1923376" size="1536" />
			<output>
				<port id="0" precision="FP16">
					<dim>1</dim>
					<dim>768</dim>
					<dim>1</dim>
				</port>
			</output>
		</layer>
		<layer id="282" name="__module.model.enc_p.encoder.ffn_layers.0.conv_1/aten::_convolution/Reshape" type="Convert" version="opset1">
			<data destination_type="f32" />
			<rt_info>
				<attribute name="decompression" version="0" />
			</rt_info>
			<input>
				<port id="0" precision="FP16">
					<dim>1</dim>
					<dim>768</dim>
					<dim>1</dim>
				</port>
			</input>
			<output>
				<port id="1" precision="FP32">
					<dim>1</dim>
					<dim>768</dim>
					<dim>1</dim>
				</port>
			</output>
		</layer>
		<layer id="283" name="__module.model.enc_p.encoder.ffn_layers.0.conv_1/aten::_convolution/Add" type="Add" version="opset1">
			<data auto_broadcast="numpy" />
			<input>
				<port id="0" precision="FP32">
					<dim>1</dim>
					<dim>768</dim>
					<dim>-1</dim>
				</port>
				<port id="1" precision="FP32">
					<dim>1</dim>
					<dim>768</dim>
					<dim>1</dim>
				</port>
			</input>
			<output>
				<port id="2" precision="FP32" names="338">
					<dim>1</dim>
					<dim>768</dim>
					<dim>-1</dim>
				</port>
			</output>
		</layer>
		<layer id="284" name="__module.model.enc_p.encoder.ffn_layers.0/aten::relu/Relu" type="ReLU" version="opset1">
			<input>
				<port id="0" precision="FP32">
					<dim>1</dim>
					<dim>768</dim>
					<dim>-1</dim>
				</port>
			</input>
			<output>
				<port id="1" precision="FP32" names="339,input.17">
					<dim>1</dim>
					<dim>768</dim>
					<dim>-1</dim>
				</port>
			</output>
		</layer>
		<layer id="285" name="__module.model.enc_p.encoder.ffn_layers.0/aten::mul/Multiply_1" type="Multiply" version="opset1">
			<data auto_broadcast="numpy" />
			<input>
				<port id="0" precision="FP32">
					<dim>1</dim>
					<dim>768</dim>
					<dim>-1</dim>
				</port>
				<port id="1" precision="FP32">
					<dim>1</dim>
					<dim>1</dim>
					<dim>-1</dim>
				</port>
			</input>
			<output>
				<port id="2" precision="FP32" names="341,input.19">
					<dim>1</dim>
					<dim>768</dim>
					<dim>-1</dim>
				</port>
			</output>
		</layer>
		<layer id="286" name="self.model.enc_p.encoder.ffn_layers.0.conv_2.weight_compressed" type="Const" version="opset1">
			<data element_type="f16" shape="192, 768, 3" offset="1924912" size="884736" />
			<output>
				<port id="0" precision="FP16" names="self.model.enc_p.encoder.ffn_layers.0.conv_2.weight">
					<dim>192</dim>
					<dim>768</dim>
					<dim>3</dim>
				</port>
			</output>
		</layer>
		<layer id="287" name="self.model.enc_p.encoder.ffn_layers.0.conv_2.weight" type="Convert" version="opset1">
			<data destination_type="f32" />
			<rt_info>
				<attribute name="decompression" version="0" />
			</rt_info>
			<input>
				<port id="0" precision="FP16">
					<dim>192</dim>
					<dim>768</dim>
					<dim>3</dim>
				</port>
			</input>
			<output>
				<port id="1" precision="FP32">
					<dim>192</dim>
					<dim>768</dim>
					<dim>3</dim>
				</port>
			</output>
		</layer>
		<layer id="288" name="__module.model.enc_p.encoder.ffn_layers.0.conv_2/aten::_convolution/Convolution" type="Convolution" version="opset1">
			<data strides="1" dilations="1" pads_begin="1" pads_end="1" auto_pad="explicit" />
			<input>
				<port id="0" precision="FP32">
					<dim>1</dim>
					<dim>768</dim>
					<dim>-1</dim>
				</port>
				<port id="1" precision="FP32">
					<dim>192</dim>
					<dim>768</dim>
					<dim>3</dim>
				</port>
			</input>
			<output>
				<port id="2" precision="FP32">
					<dim>1</dim>
					<dim>192</dim>
					<dim>-1</dim>
				</port>
			</output>
		</layer>
		<layer id="289" name="__module.model.enc_p.encoder.ffn_layers.0.conv_2/aten::_convolution/Reshape_compressed" type="Const" version="opset1">
			<data element_type="f16" shape="1, 192, 1" offset="2809648" size="384" />
			<output>
				<port id="0" precision="FP16">
					<dim>1</dim>
					<dim>192</dim>
					<dim>1</dim>
				</port>
			</output>
		</layer>
		<layer id="290" name="__module.model.enc_p.encoder.ffn_layers.0.conv_2/aten::_convolution/Reshape" type="Convert" version="opset1">
			<data destination_type="f32" />
			<rt_info>
				<attribute name="decompression" version="0" />
			</rt_info>
			<input>
				<port id="0" precision="FP16">
					<dim>1</dim>
					<dim>192</dim>
					<dim>1</dim>
				</port>
			</input>
			<output>
				<port id="1" precision="FP32">
					<dim>1</dim>
					<dim>192</dim>
					<dim>1</dim>
				</port>
			</output>
		</layer>
		<layer id="291" name="__module.model.enc_p.encoder.ffn_layers.0.conv_2/aten::_convolution/Add" type="Add" version="opset1">
			<data auto_broadcast="numpy" />
			<input>
				<port id="0" precision="FP32">
					<dim>1</dim>
					<dim>192</dim>
					<dim>-1</dim>
				</port>
				<port id="1" precision="FP32">
					<dim>1</dim>
					<dim>192</dim>
					<dim>1</dim>
				</port>
			</input>
			<output>
				<port id="2" precision="FP32" names="350,x.27">
					<dim>1</dim>
					<dim>192</dim>
					<dim>-1</dim>
				</port>
			</output>
		</layer>
		<layer id="292" name="__module.model.enc_p.encoder.ffn_layers.0/aten::mul/Multiply_2" type="Multiply" version="opset1">
			<data auto_broadcast="numpy" />
			<input>
				<port id="0" precision="FP32">
					<dim>1</dim>
					<dim>192</dim>
					<dim>-1</dim>
				</port>
				<port id="1" precision="FP32">
					<dim>1</dim>
					<dim>1</dim>
					<dim>-1</dim>
				</port>
			</input>
			<output>
				<port id="2" precision="FP32" names="351,input.21">
					<dim>1</dim>
					<dim>192</dim>
					<dim>-1</dim>
				</port>
			</output>
		</layer>
		<layer id="293" name="__module.model.enc_p.encoder/aten::add/Add_1" type="Add" version="opset1">
			<data auto_broadcast="numpy" />
			<input>
				<port id="0" precision="FP32">
					<dim>1</dim>
					<dim>192</dim>
					<dim>-1</dim>
				</port>
				<port id="1" precision="FP32">
					<dim>1</dim>
					<dim>192</dim>
					<dim>-1</dim>
				</port>
			</input>
			<output>
				<port id="2" precision="FP32" names="353,x.29">
					<dim>1</dim>
					<dim>192</dim>
					<dim>-1</dim>
				</port>
			</output>
		</layer>
		<layer id="294" name="__module.model.enc_p.encoder.norm_layers_2.0/aten::transpose/ScatterElementsUpdate" type="Const" version="opset1">
			<data element_type="i32" shape="3" offset="442372" size="12" />
			<output>
				<port id="0" precision="I32">
					<dim>3</dim>
				</port>
			</output>
		</layer>
		<layer id="295" name="__module.model.enc_p.encoder.norm_layers_2.0/aten::transpose/Transpose" type="Transpose" version="opset1">
			<input>
				<port id="0" precision="FP32">
					<dim>1</dim>
					<dim>192</dim>
					<dim>-1</dim>
				</port>
				<port id="1" precision="I32">
					<dim>3</dim>
				</port>
			</input>
			<output>
				<port id="2" precision="FP32" names="356">
					<dim>1</dim>
					<dim>-1</dim>
					<dim>192</dim>
				</port>
			</output>
		</layer>
		<layer id="296" name="__module.model.enc_p.encoder.norm_layers_2.0/aten::layer_norm/Multiply" type="Const" version="opset1">
			<data element_type="i32" shape="1" offset="1037868" size="4" />
			<output>
				<port id="0" precision="I32">
					<dim>1</dim>
				</port>
			</output>
		</layer>
		<layer id="297" name="__module.model.enc_p.encoder.norm_layers_2.0/aten::layer_norm/MVN" type="MVN" version="opset6">
			<data eps="9.9999997473787516e-06" normalize_variance="true" eps_mode="INSIDE_SQRT" />
			<input>
				<port id="0" precision="FP32">
					<dim>1</dim>
					<dim>-1</dim>
					<dim>192</dim>
				</port>
				<port id="1" precision="I32">
					<dim>1</dim>
				</port>
			</input>
			<output>
				<port id="2" precision="FP32">
					<dim>1</dim>
					<dim>-1</dim>
					<dim>192</dim>
				</port>
			</output>
		</layer>
		<layer id="298" name="Constant_658476_compressed" type="Const" version="opset1">
			<data element_type="f16" shape="1, 1, 192" offset="2810032" size="384" />
			<output>
				<port id="0" precision="FP16">
					<dim>1</dim>
					<dim>1</dim>
					<dim>192</dim>
				</port>
			</output>
		</layer>
		<layer id="299" name="Constant_658476" type="Convert" version="opset1">
			<data destination_type="f32" />
			<rt_info>
				<attribute name="decompression" version="0" />
			</rt_info>
			<input>
				<port id="0" precision="FP16">
					<dim>1</dim>
					<dim>1</dim>
					<dim>192</dim>
				</port>
			</input>
			<output>
				<port id="1" precision="FP32">
					<dim>1</dim>
					<dim>1</dim>
					<dim>192</dim>
				</port>
			</output>
		</layer>
		<layer id="300" name="__module.model.enc_p.encoder.norm_layers_2.0/aten::layer_norm/Multiply_1" type="Multiply" version="opset1">
			<data auto_broadcast="numpy" />
			<input>
				<port id="0" precision="FP32">
					<dim>1</dim>
					<dim>-1</dim>
					<dim>192</dim>
				</port>
				<port id="1" precision="FP32">
					<dim>1</dim>
					<dim>1</dim>
					<dim>192</dim>
				</port>
			</input>
			<output>
				<port id="2" precision="FP32">
					<dim>1</dim>
					<dim>-1</dim>
					<dim>192</dim>
				</port>
			</output>
		</layer>
		<layer id="301" name="Constant_658477_compressed" type="Const" version="opset1">
			<data element_type="f16" shape="1, 1, 192" offset="2810416" size="384" />
			<output>
				<port id="0" precision="FP16">
					<dim>1</dim>
					<dim>1</dim>
					<dim>192</dim>
				</port>
			</output>
		</layer>
		<layer id="302" name="Constant_658477" type="Convert" version="opset1">
			<data destination_type="f32" />
			<rt_info>
				<attribute name="decompression" version="0" />
			</rt_info>
			<input>
				<port id="0" precision="FP16">
					<dim>1</dim>
					<dim>1</dim>
					<dim>192</dim>
				</port>
			</input>
			<output>
				<port id="1" precision="FP32">
					<dim>1</dim>
					<dim>1</dim>
					<dim>192</dim>
				</port>
			</output>
		</layer>
		<layer id="303" name="__module.model.enc_p.encoder.norm_layers_2.0/aten::layer_norm/Add" type="Add" version="opset1">
			<data auto_broadcast="numpy" />
			<input>
				<port id="0" precision="FP32">
					<dim>1</dim>
					<dim>-1</dim>
					<dim>192</dim>
				</port>
				<port id="1" precision="FP32">
					<dim>1</dim>
					<dim>1</dim>
					<dim>192</dim>
				</port>
			</input>
			<output>
				<port id="2" precision="FP32" names="358,x.31">
					<dim>1</dim>
					<dim>-1</dim>
					<dim>192</dim>
				</port>
			</output>
		</layer>
		<layer id="304" name="__module.model.enc_p.encoder.norm_layers_2.0/aten::transpose/ScatterElementsUpdate_1" type="Const" version="opset1">
			<data element_type="i32" shape="3" offset="442372" size="12" />
			<output>
				<port id="0" precision="I32">
					<dim>3</dim>
				</port>
			</output>
		</layer>
		<layer id="305" name="__module.model.enc_p.encoder.norm_layers_2.0/aten::transpose/Transpose_1" type="Transpose" version="opset1">
			<input>
				<port id="0" precision="FP32">
					<dim>1</dim>
					<dim>-1</dim>
					<dim>192</dim>
				</port>
				<port id="1" precision="I32">
					<dim>3</dim>
				</port>
			</input>
			<output>
				<port id="2" precision="FP32" names="359,x.41">
					<dim>1</dim>
					<dim>192</dim>
					<dim>-1</dim>
				</port>
			</output>
		</layer>
		<layer id="306" name="__module.model.enc_p.encoder.attn_layers.1/aten::masked_fill/ConvertLike_compressed" type="Const" version="opset1">
			<data element_type="f16" shape="" offset="737720" size="2" />
			<output>
				<port id="0" precision="FP16" />
			</output>
		</layer>
		<layer id="307" name="__module.model.enc_p.encoder.attn_layers.1/aten::masked_fill/ConvertLike" type="Convert" version="opset1">
			<data destination_type="f32" />
			<rt_info>
				<attribute name="decompression" version="0" />
			</rt_info>
			<input>
				<port id="0" precision="FP16" />
			</input>
			<output>
				<port id="1" precision="FP32" />
			</output>
		</layer>
		<layer id="308" name="self.model.enc_p.encoder.attn_layers.1.conv_q.weight_compressed" type="Const" version="opset1">
			<data element_type="f16" shape="192, 192, 1" offset="2810800" size="73728" />
			<output>
				<port id="0" precision="FP16" names="self.model.enc_p.encoder.attn_layers.1.conv_q.weight">
					<dim>192</dim>
					<dim>192</dim>
					<dim>1</dim>
				</port>
			</output>
		</layer>
		<layer id="309" name="self.model.enc_p.encoder.attn_layers.1.conv_q.weight" type="Convert" version="opset1">
			<data destination_type="f32" />
			<rt_info>
				<attribute name="decompression" version="0" />
			</rt_info>
			<input>
				<port id="0" precision="FP16">
					<dim>192</dim>
					<dim>192</dim>
					<dim>1</dim>
				</port>
			</input>
			<output>
				<port id="1" precision="FP32">
					<dim>192</dim>
					<dim>192</dim>
					<dim>1</dim>
				</port>
			</output>
		</layer>
		<layer id="310" name="__module.model.enc_p.encoder.attn_layers.1.conv_q/aten::_convolution/Convolution" type="Convolution" version="opset1">
			<data strides="1" dilations="1" pads_begin="0" pads_end="0" auto_pad="explicit" />
			<input>
				<port id="0" precision="FP32">
					<dim>1</dim>
					<dim>192</dim>
					<dim>-1</dim>
				</port>
				<port id="1" precision="FP32">
					<dim>192</dim>
					<dim>192</dim>
					<dim>1</dim>
				</port>
			</input>
			<output>
				<port id="2" precision="FP32">
					<dim>1</dim>
					<dim>192</dim>
					<dim>-1</dim>
				</port>
			</output>
		</layer>
		<layer id="311" name="__module.model.enc_p.encoder.attn_layers.1.conv_q/aten::_convolution/Reshape_compressed" type="Const" version="opset1">
			<data element_type="f16" shape="1, 192, 1" offset="2884528" size="384" />
			<output>
				<port id="0" precision="FP16">
					<dim>1</dim>
					<dim>192</dim>
					<dim>1</dim>
				</port>
			</output>
		</layer>
		<layer id="312" name="__module.model.enc_p.encoder.attn_layers.1.conv_q/aten::_convolution/Reshape" type="Convert" version="opset1">
			<data destination_type="f32" />
			<rt_info>
				<attribute name="decompression" version="0" />
			</rt_info>
			<input>
				<port id="0" precision="FP16">
					<dim>1</dim>
					<dim>192</dim>
					<dim>1</dim>
				</port>
			</input>
			<output>
				<port id="1" precision="FP32">
					<dim>1</dim>
					<dim>192</dim>
					<dim>1</dim>
				</port>
			</output>
		</layer>
		<layer id="313" name="__module.model.enc_p.encoder.attn_layers.1.conv_q/aten::_convolution/Add" type="Add" version="opset1">
			<data auto_broadcast="numpy" />
			<input>
				<port id="0" precision="FP32">
					<dim>1</dim>
					<dim>192</dim>
					<dim>-1</dim>
				</port>
				<port id="1" precision="FP32">
					<dim>1</dim>
					<dim>192</dim>
					<dim>1</dim>
				</port>
			</input>
			<output>
				<port id="2" precision="FP32" names="372,query.5">
					<dim>1</dim>
					<dim>192</dim>
					<dim>-1</dim>
				</port>
			</output>
		</layer>
		<layer id="314" name="Constant_683608" type="Const" version="opset1">
			<data element_type="i64" shape="4" offset="811834" size="32" />
			<rt_info>
				<attribute name="precise" version="0" />
			</rt_info>
			<output>
				<port id="0" precision="I64">
					<dim>4</dim>
				</port>
			</output>
		</layer>
		<layer id="315" name="__module.model.enc_p.encoder.attn_layers.1/aten::view/Reshape" type="Reshape" version="opset1">
			<data special_zero="true" />
			<input>
				<port id="0" precision="FP32">
					<dim>1</dim>
					<dim>192</dim>
					<dim>-1</dim>
				</port>
				<port id="1" precision="I64">
					<dim>4</dim>
				</port>
			</input>
			<output>
				<port id="2" precision="FP32" names="393">
					<dim>1</dim>
					<dim>2</dim>
					<dim>96</dim>
					<dim>-1</dim>
				</port>
			</output>
		</layer>
		<layer id="316" name="__module.model.enc_p.encoder.attn_layers.1/aten::transpose/ScatterElementsUpdate" type="Const" version="opset1">
			<data element_type="i32" shape="4" offset="811866" size="16" />
			<output>
				<port id="0" precision="I32">
					<dim>4</dim>
				</port>
			</output>
		</layer>
		<layer id="317" name="__module.model.enc_p.encoder.attn_layers.1/aten::transpose/Transpose" type="Transpose" version="opset1">
			<input>
				<port id="0" precision="FP32">
					<dim>1</dim>
					<dim>2</dim>
					<dim>96</dim>
					<dim>-1</dim>
				</port>
				<port id="1" precision="I32">
					<dim>4</dim>
				</port>
			</input>
			<output>
				<port id="2" precision="FP32" names="394,query.7">
					<dim>1</dim>
					<dim>2</dim>
					<dim>-1</dim>
					<dim>96</dim>
				</port>
			</output>
		</layer>
		<layer id="318" name="Constant_658478_compressed" type="Const" version="opset1">
			<data element_type="f16" shape="1, 1, 1, 1" offset="811882" size="2" />
			<output>
				<port id="0" precision="FP16">
					<dim>1</dim>
					<dim>1</dim>
					<dim>1</dim>
					<dim>1</dim>
				</port>
			</output>
		</layer>
		<layer id="319" name="Constant_658478" type="Convert" version="opset1">
			<data destination_type="f32" />
			<rt_info>
				<attribute name="decompression" version="0" />
			</rt_info>
			<input>
				<port id="0" precision="FP16">
					<dim>1</dim>
					<dim>1</dim>
					<dim>1</dim>
					<dim>1</dim>
				</port>
			</input>
			<output>
				<port id="1" precision="FP32">
					<dim>1</dim>
					<dim>1</dim>
					<dim>1</dim>
					<dim>1</dim>
				</port>
			</output>
		</layer>
		<layer id="320" name="__module.model.enc_p.encoder.attn_layers.1/aten::div/Divide" type="Divide" version="opset1">
			<data auto_broadcast="numpy" m_pythondiv="true" />
			<input>
				<port id="0" precision="FP32">
					<dim>1</dim>
					<dim>2</dim>
					<dim>-1</dim>
					<dim>96</dim>
				</port>
				<port id="1" precision="FP32">
					<dim>1</dim>
					<dim>1</dim>
					<dim>1</dim>
					<dim>1</dim>
				</port>
			</input>
			<output>
				<port id="2" precision="FP32" names="401,415">
					<dim>1</dim>
					<dim>2</dim>
					<dim>-1</dim>
					<dim>96</dim>
				</port>
			</output>
		</layer>
		<layer id="321" name="self.model.enc_p.encoder.attn_layers.1.conv_k.weight_compressed" type="Const" version="opset1">
			<data element_type="f16" shape="192, 192, 1" offset="2884912" size="73728" />
			<output>
				<port id="0" precision="FP16" names="self.model.enc_p.encoder.attn_layers.1.conv_k.weight">
					<dim>192</dim>
					<dim>192</dim>
					<dim>1</dim>
				</port>
			</output>
		</layer>
		<layer id="322" name="self.model.enc_p.encoder.attn_layers.1.conv_k.weight" type="Convert" version="opset1">
			<data destination_type="f32" />
			<rt_info>
				<attribute name="decompression" version="0" />
			</rt_info>
			<input>
				<port id="0" precision="FP16">
					<dim>192</dim>
					<dim>192</dim>
					<dim>1</dim>
				</port>
			</input>
			<output>
				<port id="1" precision="FP32">
					<dim>192</dim>
					<dim>192</dim>
					<dim>1</dim>
				</port>
			</output>
		</layer>
		<layer id="323" name="__module.model.enc_p.encoder.attn_layers.1.conv_k/aten::_convolution/Convolution" type="Convolution" version="opset1">
			<data strides="1" dilations="1" pads_begin="0" pads_end="0" auto_pad="explicit" />
			<input>
				<port id="0" precision="FP32">
					<dim>1</dim>
					<dim>192</dim>
					<dim>-1</dim>
				</port>
				<port id="1" precision="FP32">
					<dim>192</dim>
					<dim>192</dim>
					<dim>1</dim>
				</port>
			</input>
			<output>
				<port id="2" precision="FP32">
					<dim>1</dim>
					<dim>192</dim>
					<dim>-1</dim>
				</port>
			</output>
		</layer>
		<layer id="324" name="__module.model.enc_p.encoder.attn_layers.1.conv_k/aten::_convolution/Reshape_compressed" type="Const" version="opset1">
			<data element_type="f16" shape="1, 192, 1" offset="2958640" size="384" />
			<output>
				<port id="0" precision="FP16">
					<dim>1</dim>
					<dim>192</dim>
					<dim>1</dim>
				</port>
			</output>
		</layer>
		<layer id="325" name="__module.model.enc_p.encoder.attn_layers.1.conv_k/aten::_convolution/Reshape" type="Convert" version="opset1">
			<data destination_type="f32" />
			<rt_info>
				<attribute name="decompression" version="0" />
			</rt_info>
			<input>
				<port id="0" precision="FP16">
					<dim>1</dim>
					<dim>192</dim>
					<dim>1</dim>
				</port>
			</input>
			<output>
				<port id="1" precision="FP32">
					<dim>1</dim>
					<dim>192</dim>
					<dim>1</dim>
				</port>
			</output>
		</layer>
		<layer id="326" name="__module.model.enc_p.encoder.attn_layers.1.conv_k/aten::_convolution/Add" type="Add" version="opset1">
			<data auto_broadcast="numpy" />
			<input>
				<port id="0" precision="FP32">
					<dim>1</dim>
					<dim>192</dim>
					<dim>-1</dim>
				</port>
				<port id="1" precision="FP32">
					<dim>1</dim>
					<dim>192</dim>
					<dim>1</dim>
				</port>
			</input>
			<output>
				<port id="2" precision="FP32" names="379,key.5">
					<dim>1</dim>
					<dim>192</dim>
					<dim>-1</dim>
				</port>
			</output>
		</layer>
		<layer id="327" name="Constant_683609" type="Const" version="opset1">
			<data element_type="i64" shape="4" offset="811834" size="32" />
			<rt_info>
				<attribute name="precise" version="0" />
			</rt_info>
			<output>
				<port id="0" precision="I64">
					<dim>4</dim>
				</port>
			</output>
		</layer>
		<layer id="328" name="__module.model.enc_p.encoder.attn_layers.1/aten::view/Reshape_1" type="Reshape" version="opset1">
			<data special_zero="true" />
			<input>
				<port id="0" precision="FP32">
					<dim>1</dim>
					<dim>192</dim>
					<dim>-1</dim>
				</port>
				<port id="1" precision="I64">
					<dim>4</dim>
				</port>
			</input>
			<output>
				<port id="2" precision="FP32" names="396,402">
					<dim>1</dim>
					<dim>2</dim>
					<dim>96</dim>
					<dim>-1</dim>
				</port>
			</output>
		</layer>
		<layer id="329" name="__module.model.enc_p.encoder.attn_layers.1/aten::matmul/MatMul" type="MatMul" version="opset1">
			<data transpose_a="false" transpose_b="false" />
			<input>
				<port id="0" precision="FP32">
					<dim>1</dim>
					<dim>2</dim>
					<dim>-1</dim>
					<dim>96</dim>
				</port>
				<port id="1" precision="FP32">
					<dim>1</dim>
					<dim>2</dim>
					<dim>96</dim>
					<dim>-1</dim>
				</port>
			</input>
			<output>
				<port id="2" precision="FP32" names="403,scores.5">
					<dim>1</dim>
					<dim>2</dim>
					<dim>-1</dim>
					<dim>-1</dim>
				</port>
			</output>
		</layer>
		<layer id="330" name="self.model.enc_p.encoder.attn_layers.1.emb_rel_k_compressed" type="Const" version="opset1">
			<data element_type="f16" shape="1, 9, 96" offset="2959024" size="1728" />
			<output>
				<port id="0" precision="FP16" names="self.model.enc_p.encoder.attn_layers.1.emb_rel_k">
					<dim>1</dim>
					<dim>9</dim>
					<dim>96</dim>
				</port>
			</output>
		</layer>
		<layer id="331" name="self.model.enc_p.encoder.attn_layers.1.emb_rel_k" type="Convert" version="opset1">
			<data destination_type="f32" />
			<rt_info>
				<attribute name="decompression" version="0" />
			</rt_info>
			<input>
				<port id="0" precision="FP16">
					<dim>1</dim>
					<dim>9</dim>
					<dim>96</dim>
				</port>
			</input>
			<output>
				<port id="1" precision="FP32">
					<dim>1</dim>
					<dim>9</dim>
					<dim>96</dim>
				</port>
			</output>
		</layer>
		<layer id="332" name="ShapeOf_682988" type="ShapeOf" version="opset3">
			<data output_type="i64" />
			<input>
				<port id="0" precision="FP32">
					<dim>1</dim>
					<dim>192</dim>
					<dim>-1</dim>
				</port>
			</input>
			<output>
				<port id="1" precision="I64">
					<dim>3</dim>
				</port>
			</output>
		</layer>
		<layer id="333" name="Constant_682999" type="Const" version="opset1">
			<data element_type="i64" shape="" offset="737682" size="8" />
			<rt_info>
				<attribute name="precise" version="0" />
			</rt_info>
			<output>
				<port id="0" precision="I64" />
			</output>
		</layer>
		<layer id="334" name="Constant_683000" type="Const" version="opset1">
			<data element_type="i64" shape="" offset="737690" size="8" />
			<rt_info>
				<attribute name="precise" version="0" />
			</rt_info>
			<output>
				<port id="0" precision="I64" />
			</output>
		</layer>
		<layer id="335" name="Gather_683001" type="Gather" version="opset8">
			<data batch_dims="0" />
			<input>
				<port id="0" precision="I64">
					<dim>3</dim>
				</port>
				<port id="1" precision="I64" />
				<port id="2" precision="I64" />
			</input>
			<output>
				<port id="3" precision="I64" names="389" />
			</output>
		</layer>
		<layer id="336" name="Constant_183932" type="Const" version="opset1">
			<data element_type="i32" shape="" offset="0" size="4" />
			<rt_info>
				<attribute name="precise" version="0" />
			</rt_info>
			<output>
				<port id="0" precision="I32" />
			</output>
		</layer>
		<layer id="337" name="Unsqueeze_682712" type="Unsqueeze" version="opset1">
			<input>
				<port id="0" precision="I64" />
				<port id="1" precision="I32" />
			</input>
			<output>
				<port id="2" precision="I64">
					<dim>1</dim>
				</port>
			</output>
		</layer>
		<layer id="338" name="Constant_682714" type="Const" version="opset1">
			<data element_type="i64" shape="1" offset="887724" size="8" />
			<rt_info>
				<attribute name="precise" version="0" />
			</rt_info>
			<output>
				<port id="0" precision="I64">
					<dim>1</dim>
				</port>
			</output>
		</layer>
		<layer id="339" name="__module.model.enc_p.encoder.attn_layers.1/aten::sub/Subtract" type="Add" version="opset1">
			<data auto_broadcast="numpy" />
			<input>
				<port id="0" precision="I64">
					<dim>1</dim>
				</port>
				<port id="1" precision="I64">
					<dim>1</dim>
				</port>
			</input>
			<output>
				<port id="2" precision="I64" names="404,405,406,478,479,480,pad_length.5,pad_length.7">
					<dim>1</dim>
				</port>
			</output>
		</layer>
		<layer id="340" name="Concat_183939" type="Concat" version="opset1">
			<data axis="0" />
			<input>
				<port id="0" precision="I64">
					<dim>1</dim>
				</port>
				<port id="1" precision="I64">
					<dim>1</dim>
				</port>
				<port id="2" precision="I64">
					<dim>1</dim>
				</port>
				<port id="3" precision="I64">
					<dim>1</dim>
				</port>
				<port id="4" precision="I64">
					<dim>1</dim>
				</port>
				<port id="5" precision="I64">
					<dim>1</dim>
				</port>
			</input>
			<output>
				<port id="6" precision="I64">
					<dim>6</dim>
				</port>
			</output>
		</layer>
		<layer id="341" name="__module.model.enc_p.encoder.attn_layers.1/aten::pad/Range" type="Const" version="opset1">
			<data element_type="i32" shape="3" offset="887732" size="12" />
			<rt_info>
				<attribute name="precise" version="0" />
			</rt_info>
			<output>
				<port id="0" precision="I32">
					<dim>3</dim>
				</port>
			</output>
		</layer>
		<layer id="342" name="Constant_183948" type="Const" version="opset1">
			<data element_type="i32" shape="" offset="0" size="4" />
			<rt_info>
				<attribute name="precise" version="0" />
			</rt_info>
			<output>
				<port id="0" precision="I32" />
			</output>
		</layer>
		<layer id="343" name="__module.model.enc_p.encoder.attn_layers.1/aten::pad/Gather" type="Gather" version="opset8">
			<data batch_dims="0" />
			<input>
				<port id="0" precision="I64">
					<dim>6</dim>
				</port>
				<port id="1" precision="I32">
					<dim>3</dim>
				</port>
				<port id="2" precision="I32" />
			</input>
			<output>
				<port id="3" precision="I64">
					<dim>3</dim>
				</port>
			</output>
		</layer>
		<layer id="344" name="__module.model.enc_p.encoder.attn_layers.1/aten::pad/Range_4" type="Const" version="opset1">
			<data element_type="i32" shape="3" offset="887744" size="12" />
			<rt_info>
				<attribute name="precise" version="0" />
			</rt_info>
			<output>
				<port id="0" precision="I32">
					<dim>3</dim>
				</port>
			</output>
		</layer>
		<layer id="345" name="Constant_183966" type="Const" version="opset1">
			<data element_type="i32" shape="" offset="0" size="4" />
			<rt_info>
				<attribute name="precise" version="0" />
			</rt_info>
			<output>
				<port id="0" precision="I32" />
			</output>
		</layer>
		<layer id="346" name="__module.model.enc_p.encoder.attn_layers.1/aten::pad/Gather_5" type="Gather" version="opset8">
			<data batch_dims="0" />
			<input>
				<port id="0" precision="I64">
					<dim>6</dim>
				</port>
				<port id="1" precision="I32">
					<dim>3</dim>
				</port>
				<port id="2" precision="I32" />
			</input>
			<output>
				<port id="3" precision="I64">
					<dim>3</dim>
				</port>
			</output>
		</layer>
		<layer id="347" name="__module.model.enc_p.encoder.attn_layers.1/aten::pad/ConvertLike_11_compressed" type="Const" version="opset1">
			<data element_type="f16" shape="" offset="737718" size="2" />
			<output>
				<port id="0" precision="FP16" />
			</output>
		</layer>
		<layer id="348" name="__module.model.enc_p.encoder.attn_layers.1/aten::pad/ConvertLike_11" type="Convert" version="opset1">
			<data destination_type="f32" />
			<rt_info>
				<attribute name="decompression" version="0" />
			</rt_info>
			<input>
				<port id="0" precision="FP16" />
			</input>
			<output>
				<port id="1" precision="FP32" />
			</output>
		</layer>
		<layer id="349" name="__module.model.enc_p.encoder.attn_layers.1/aten::pad" type="Pad" version="opset1">
			<data pad_mode="constant" />
			<input>
				<port id="0" precision="FP32">
					<dim>1</dim>
					<dim>9</dim>
					<dim>96</dim>
				</port>
				<port id="1" precision="I64">
					<dim>3</dim>
				</port>
				<port id="2" precision="I64">
					<dim>3</dim>
				</port>
				<port id="3" precision="FP32" />
			</input>
			<output>
				<port id="4" precision="FP32" names="412,413,padded_relative_embeddings.5">
					<dim>1</dim>
					<dim>-1</dim>
					<dim>96</dim>
				</port>
			</output>
		</layer>
		<layer id="350" name="__module.model.enc_p.encoder.attn_layers.1/aten::slice/Reshape_4" type="Const" version="opset1">
			<data element_type="i64" shape="1" offset="737690" size="8" />
			<output>
				<port id="0" precision="I64">
					<dim>1</dim>
				</port>
			</output>
		</layer>
		<layer id="351" name="__module.model.enc_p.encoder.attn_layers.1/aten::mul/Multiply" type="Multiply" version="opset1">
			<data auto_broadcast="numpy" />
			<input>
				<port id="0" precision="I64" />
				<port id="1" precision="I64" />
			</input>
			<output>
				<port id="2" precision="I64" names="407,408,481,482" />
			</output>
		</layer>
		<layer id="352" name="Constant_656207" type="Const" version="opset1">
			<data element_type="i64" shape="" offset="737710" size="8" />
			<output>
				<port id="0" precision="I64" />
			</output>
		</layer>
		<layer id="353" name="__module.model.enc_p.encoder.attn_layers.1/aten::sub/Subtract_1" type="Add" version="opset1">
			<data auto_broadcast="numpy" />
			<input>
				<port id="0" precision="I64" />
				<port id="1" precision="I64" />
			</input>
			<output>
				<port id="2" precision="I64" names="409,410,483,484,slice_end_position.5,slice_end_position.7" />
			</output>
		</layer>
		<layer id="354" name="Constant_745468" type="Const" version="opset1">
			<data element_type="i64" shape="1" offset="737710" size="8" />
			<rt_info>
				<attribute name="precise" version="0" />
			</rt_info>
			<output>
				<port id="0" precision="I64">
					<dim>1</dim>
				</port>
			</output>
		</layer>
		<layer id="355" name="__module.model.enc_p.encoder.attn_layers.1/aten::slice/Reshape_5" type="Reshape" version="opset1">
			<data special_zero="false" />
			<input>
				<port id="0" precision="I64" />
				<port id="1" precision="I64">
					<dim>1</dim>
				</port>
			</input>
			<output>
				<port id="2" precision="I64">
					<dim>1</dim>
				</port>
			</output>
		</layer>
		<layer id="356" name="__module.model.enc_p.encoder.attn_layers.1/aten::slice/Reshape_6" type="Const" version="opset1">
			<data element_type="i64" shape="1" offset="737702" size="8" />
			<output>
				<port id="0" precision="I64">
					<dim>1</dim>
				</port>
			</output>
		</layer>
		<layer id="357" name="__module.model.enc_p.encoder.attn_layers.1/aten::slice/Reshape_7" type="Const" version="opset1">
			<data element_type="i64" shape="1" offset="737702" size="8" />
			<output>
				<port id="0" precision="I64">
					<dim>1</dim>
				</port>
			</output>
		</layer>
		<layer id="358" name="__module.model.enc_p.encoder.attn_layers.1/aten::slice/Slice_1" type="Slice" version="opset8">
			<input>
				<port id="0" precision="FP32">
					<dim>1</dim>
					<dim>-1</dim>
					<dim>96</dim>
				</port>
				<port id="1" precision="I64">
					<dim>1</dim>
				</port>
				<port id="2" precision="I64">
					<dim>1</dim>
				</port>
				<port id="3" precision="I64">
					<dim>1</dim>
				</port>
				<port id="4" precision="I64">
					<dim>1</dim>
				</port>
			</input>
			<output>
				<port id="5" precision="FP32" names="414,y.9">
					<dim>1</dim>
					<dim>-1</dim>
					<dim>96</dim>
				</port>
			</output>
		</layer>
		<layer id="359" name="__module.model.enc_p.encoder.attn_layers.1/aten::unsqueeze/Unsqueeze" type="Unsqueeze" version="opset1">
			<input>
				<port id="0" precision="FP32">
					<dim>1</dim>
					<dim>-1</dim>
					<dim>96</dim>
				</port>
				<port id="1" precision="I64" />
			</input>
			<output>
				<port id="2" precision="FP32" names="416">
					<dim>1</dim>
					<dim>1</dim>
					<dim>-1</dim>
					<dim>96</dim>
				</port>
			</output>
		</layer>
		<layer id="360" name="__module.model.enc_p.encoder.attn_layers.1/aten::matmul/MatMul_1" type="MatMul" version="opset1">
			<data transpose_a="false" transpose_b="true" />
			<input>
				<port id="0" precision="FP32">
					<dim>1</dim>
					<dim>2</dim>
					<dim>-1</dim>
					<dim>96</dim>
				</port>
				<port id="1" precision="FP32">
					<dim>1</dim>
					<dim>1</dim>
					<dim>-1</dim>
					<dim>96</dim>
				</port>
			</input>
			<output>
				<port id="2" precision="FP32" names="418,x.33">
					<dim>1</dim>
					<dim>2</dim>
					<dim>-1</dim>
					<dim>-1</dim>
				</port>
			</output>
		</layer>
		<layer id="361" name="__module.model.enc_p.encoder.attn_layers.1/aten::pad/Concat_1" type="Const" version="opset1">
			<data element_type="i32" shape="4" offset="887756" size="16" />
			<rt_info>
				<attribute name="precise" version="0" />
			</rt_info>
			<output>
				<port id="0" precision="I32">
					<dim>4</dim>
				</port>
			</output>
		</layer>
		<layer id="362" name="__module.model.enc_p.encoder.attn_layers.1/aten::pad/Concat_2" type="Const" version="opset1">
			<data element_type="i32" shape="4" offset="887772" size="16" />
			<rt_info>
				<attribute name="precise" version="0" />
			</rt_info>
			<output>
				<port id="0" precision="I32">
					<dim>4</dim>
				</port>
			</output>
		</layer>
		<layer id="363" name="__module.model.enc_p.encoder.attn_layers.1/aten::pad/ConvertLike_1_compressed" type="Const" version="opset1">
			<data element_type="f16" shape="" offset="737718" size="2" />
			<output>
				<port id="0" precision="FP16" />
			</output>
		</layer>
		<layer id="364" name="__module.model.enc_p.encoder.attn_layers.1/aten::pad/ConvertLike_1" type="Convert" version="opset1">
			<data destination_type="f32" />
			<rt_info>
				<attribute name="decompression" version="0" />
			</rt_info>
			<input>
				<port id="0" precision="FP16" />
			</input>
			<output>
				<port id="1" precision="FP32" />
			</output>
		</layer>
		<layer id="365" name="__module.model.enc_p.encoder.attn_layers.1/aten::pad/Pad" type="Pad" version="opset1">
			<data pad_mode="constant" />
			<input>
				<port id="0" precision="FP32">
					<dim>1</dim>
					<dim>2</dim>
					<dim>-1</dim>
					<dim>-1</dim>
				</port>
				<port id="1" precision="I32">
					<dim>4</dim>
				</port>
				<port id="2" precision="I32">
					<dim>4</dim>
				</port>
				<port id="3" precision="FP32" />
			</input>
			<output>
				<port id="4" precision="FP32" names="424,x.35">
					<dim>1</dim>
					<dim>2</dim>
					<dim>-1</dim>
					<dim>-1</dim>
				</port>
			</output>
		</layer>
		<layer id="366" name="Constant_683610" type="Const" version="opset1">
			<data element_type="i64" shape="3" offset="887788" size="24" />
			<rt_info>
				<attribute name="precise" version="0" />
			</rt_info>
			<output>
				<port id="0" precision="I64">
					<dim>3</dim>
				</port>
			</output>
		</layer>
		<layer id="367" name="__module.model.enc_p.encoder.attn_layers.1/aten::view/Reshape_2" type="Reshape" version="opset1">
			<data special_zero="true" />
			<input>
				<port id="0" precision="FP32">
					<dim>1</dim>
					<dim>2</dim>
					<dim>-1</dim>
					<dim>-1</dim>
				</port>
				<port id="1" precision="I64">
					<dim>3</dim>
				</port>
			</input>
			<output>
				<port id="2" precision="FP32" names="429,input.25">
					<dim>1</dim>
					<dim>2</dim>
					<dim>-1</dim>
				</port>
			</output>
		</layer>
		<layer id="368" name="ShapeOf_682993" type="ShapeOf" version="opset3">
			<data output_type="i64" />
			<input>
				<port id="0" precision="FP32">
					<dim>1</dim>
					<dim>192</dim>
					<dim>-1</dim>
				</port>
			</input>
			<output>
				<port id="1" precision="I64">
					<dim>3</dim>
				</port>
			</output>
		</layer>
		<layer id="369" name="Constant_682994" type="Const" version="opset1">
			<data element_type="i64" shape="1" offset="737682" size="8" />
			<rt_info>
				<attribute name="precise" version="0" />
			</rt_info>
			<output>
				<port id="0" precision="I64">
					<dim>1</dim>
				</port>
			</output>
		</layer>
		<layer id="370" name="Constant_682995" type="Const" version="opset1">
			<data element_type="i64" shape="" offset="737690" size="8" />
			<rt_info>
				<attribute name="precise" version="0" />
			</rt_info>
			<output>
				<port id="0" precision="I64" />
			</output>
		</layer>
		<layer id="371" name="Gather_682996" type="Gather" version="opset8">
			<data batch_dims="0" />
			<input>
				<port id="0" precision="I64">
					<dim>3</dim>
				</port>
				<port id="1" precision="I64">
					<dim>1</dim>
				</port>
				<port id="2" precision="I64" />
			</input>
			<output>
				<port id="3" precision="I64" names="391">
					<dim>1</dim>
				</port>
			</output>
		</layer>
		<layer id="372" name="Squeeze_683003" type="Squeeze" version="opset1">
			<input>
				<port id="0" precision="I64">
					<dim>1</dim>
				</port>
			</input>
			<output>
				<port id="1" precision="I64" names="421" />
			</output>
		</layer>
		<layer id="373" name="Constant_656211" type="Const" version="opset1">
			<data element_type="i64" shape="" offset="737710" size="8" />
			<rt_info>
				<attribute name="precise" version="0" />
			</rt_info>
			<output>
				<port id="0" precision="I64" />
			</output>
		</layer>
		<layer id="374" name="__module.model.enc_p.encoder.attn_layers.1/aten::sub/Subtract_2" type="Add" version="opset1">
			<data auto_broadcast="numpy" />
			<input>
				<port id="0" precision="I64" />
				<port id="1" precision="I64" />
			</input>
			<output>
				<port id="2" precision="I64" names="430,431,441,442" />
			</output>
		</layer>
		<layer id="375" name="Constant_184139" type="Const" version="opset1">
			<data element_type="i32" shape="" offset="0" size="4" />
			<rt_info>
…
		<edge from-layer="6209" from-port="1" to-layer="6210" to-port="1" />
		<edge from-layer="6210" from-port="2" to-layer="6211" to-port="0" />
		<edge from-layer="6211" from-port="2" to-layer="6212" to-port="0" />
		<edge from-layer="6211" from-port="2" to-layer="6226" to-port="1" />
		<edge from-layer="6212" from-port="2" to-layer="6215" to-port="0" />
		<edge from-layer="6213" from-port="0" to-layer="6214" to-port="0" />
		<edge from-layer="6214" from-port="1" to-layer="6215" to-port="1" />
		<edge from-layer="6215" from-port="2" to-layer="6218" to-port="0" />
		<edge from-layer="6216" from-port="0" to-layer="6217" to-port="0" />
		<edge from-layer="6217" from-port="1" to-layer="6218" to-port="1" />
		<edge from-layer="6218" from-port="2" to-layer="6219" to-port="0" />
		<edge from-layer="6219" from-port="2" to-layer="6222" to-port="0" />
		<edge from-layer="6220" from-port="0" to-layer="6221" to-port="0" />
		<edge from-layer="6221" from-port="1" to-layer="6222" to-port="1" />
		<edge from-layer="6222" from-port="2" to-layer="6225" to-port="0" />
		<edge from-layer="6223" from-port="0" to-layer="6224" to-port="0" />
		<edge from-layer="6224" from-port="1" to-layer="6225" to-port="1" />
		<edge from-layer="6225" from-port="2" to-layer="6226" to-port="0" />
		<edge from-layer="6226" from-port="2" to-layer="6227" to-port="1" />
		<edge from-layer="6227" from-port="2" to-layer="6272" to-port="0" />
		<edge from-layer="6228" from-port="0" to-layer="6229" to-port="0" />
		<edge from-layer="6229" from-port="1" to-layer="6230" to-port="1" />
		<edge from-layer="6230" from-port="2" to-layer="6233" to-port="0" />
		<edge from-layer="6231" from-port="0" to-layer="6232" to-port="0" />
		<edge from-layer="6232" from-port="1" to-layer="6233" to-port="1" />
		<edge from-layer="6233" from-port="2" to-layer="6234" to-port="0" />
		<edge from-layer="6234" from-port="2" to-layer="6237" to-port="0" />
		<edge from-layer="6235" from-port="0" to-layer="6236" to-port="0" />
		<edge from-layer="6236" from-port="1" to-layer="6237" to-port="1" />
		<edge from-layer="6237" from-port="2" to-layer="6240" to-port="0" />
		<edge from-layer="6238" from-port="0" to-layer="6239" to-port="0" />
		<edge from-layer="6239" from-port="1" to-layer="6240" to-port="1" />
		<edge from-layer="6240" from-port="2" to-layer="6241" to-port="0" />
		<edge from-layer="6241" from-port="2" to-layer="6256" to-port="1" />
		<edge from-layer="6241" from-port="2" to-layer="6242" to-port="0" />
		<edge from-layer="6242" from-port="2" to-layer="6245" to-port="0" />
		<edge from-layer="6243" from-port="0" to-layer="6244" to-port="0" />
		<edge from-layer="6244" from-port="1" to-layer="6245" to-port="1" />
		<edge from-layer="6245" from-port="2" to-layer="6248" to-port="0" />
		<edge from-layer="6246" from-port="0" to-layer="6247" to-port="0" />
		<edge from-layer="6247" from-port="1" to-layer="6248" to-port="1" />
		<edge from-layer="6248" from-port="2" to-layer="6249" to-port="0" />
		<edge from-layer="6249" from-port="2" to-layer="6252" to-port="0" />
		<edge from-layer="6250" from-port="0" to-layer="6251" to-port="0" />
		<edge from-layer="6251" from-port="1" to-layer="6252" to-port="1" />
		<edge from-layer="6252" from-port="2" to-layer="6255" to-port="0" />
		<edge from-layer="6253" from-port="0" to-layer="6254" to-port="0" />
		<edge from-layer="6254" from-port="1" to-layer="6255" to-port="1" />
		<edge from-layer="6255" from-port="2" to-layer="6256" to-port="0" />
		<edge from-layer="6256" from-port="2" to-layer="6271" to-port="1" />
		<edge from-layer="6256" from-port="2" to-layer="6257" to-port="0" />
		<edge from-layer="6257" from-port="2" to-layer="6260" to-port="0" />
		<edge from-layer="6258" from-port="0" to-layer="6259" to-port="0" />
		<edge from-layer="6259" from-port="1" to-layer="6260" to-port="1" />
		<edge from-layer="6260" from-port="2" to-layer="6263" to-port="0" />
		<edge from-layer="6261" from-port="0" to-layer="6262" to-port="0" />
		<edge from-layer="6262" from-port="1" to-layer="6263" to-port="1" />
		<edge from-layer="6263" from-port="2" to-layer="6264" to-port="0" />
		<edge from-layer="6264" from-port="2" to-layer="6267" to-port="0" />
		<edge from-layer="6265" from-port="0" to-layer="6266" to-port="0" />
		<edge from-layer="6266" from-port="1" to-layer="6267" to-port="1" />
		<edge from-layer="6267" from-port="2" to-layer="6270" to-port="0" />
		<edge from-layer="6268" from-port="0" to-layer="6269" to-port="0" />
		<edge from-layer="6269" from-port="1" to-layer="6270" to-port="1" />
		<edge from-layer="6270" from-port="2" to-layer="6271" to-port="0" />
		<edge from-layer="6271" from-port="2" to-layer="6272" to-port="1" />
		<edge from-layer="6272" from-port="2" to-layer="6275" to-port="0" />
		<edge from-layer="6273" from-port="0" to-layer="6274" to-port="0" />
		<edge from-layer="6274" from-port="1" to-layer="6275" to-port="1" />
		<edge from-layer="6275" from-port="2" to-layer="6276" to-port="0" />
		<edge from-layer="6276" from-port="2" to-layer="6279" to-port="0" />
		<edge from-layer="6277" from-port="0" to-layer="6278" to-port="0" />
		<edge from-layer="6278" from-port="1" to-layer="6279" to-port="1" />
		<edge from-layer="6279" from-port="2" to-layer="6282" to-port="0" />
		<edge from-layer="6280" from-port="0" to-layer="6281" to-port="0" />
		<edge from-layer="6281" from-port="1" to-layer="6282" to-port="1" />
		<edge from-layer="6282" from-port="2" to-layer="6297" to-port="1" />
		<edge from-layer="6282" from-port="2" to-layer="6386" to-port="1" />
		<edge from-layer="6282" from-port="2" to-layer="6283" to-port="0" />
		<edge from-layer="6282" from-port="2" to-layer="6341" to-port="1" />
		<edge from-layer="6283" from-port="2" to-layer="6375" to-port="0" />
		<edge from-layer="6283" from-port="2" to-layer="6286" to-port="0" />
		<edge from-layer="6283" from-port="2" to-layer="6330" to-port="0" />
		<edge from-layer="6284" from-port="0" to-layer="6285" to-port="0" />
		<edge from-layer="6285" from-port="1" to-layer="6286" to-port="1" />
		<edge from-layer="6286" from-port="2" to-layer="6289" to-port="0" />
		<edge from-layer="6287" from-port="0" to-layer="6288" to-port="0" />
		<edge from-layer="6288" from-port="1" to-layer="6289" to-port="1" />
		<edge from-layer="6289" from-port="2" to-layer="6290" to-port="0" />
		<edge from-layer="6290" from-port="2" to-layer="6293" to-port="0" />
		<edge from-layer="6291" from-port="0" to-layer="6292" to-port="0" />
		<edge from-layer="6292" from-port="1" to-layer="6293" to-port="1" />
		<edge from-layer="6293" from-port="2" to-layer="6296" to-port="0" />
		<edge from-layer="6294" from-port="0" to-layer="6295" to-port="0" />
		<edge from-layer="6295" from-port="1" to-layer="6296" to-port="1" />
		<edge from-layer="6296" from-port="2" to-layer="6297" to-port="0" />
		<edge from-layer="6297" from-port="2" to-layer="6298" to-port="0" />
		<edge from-layer="6297" from-port="2" to-layer="6312" to-port="1" />
		<edge from-layer="6298" from-port="2" to-layer="6301" to-port="0" />
		<edge from-layer="6299" from-port="0" to-layer="6300" to-port="0" />
		<edge from-layer="6300" from-port="1" to-layer="6301" to-port="1" />
		<edge from-layer="6301" from-port="2" to-layer="6304" to-port="0" />
		<edge from-layer="6302" from-port="0" to-layer="6303" to-port="0" />
		<edge from-layer="6303" from-port="1" to-layer="6304" to-port="1" />
		<edge from-layer="6304" from-port="2" to-layer="6305" to-port="0" />
		<edge from-layer="6305" from-port="2" to-layer="6308" to-port="0" />
		<edge from-layer="6306" from-port="0" to-layer="6307" to-port="0" />
		<edge from-layer="6307" from-port="1" to-layer="6308" to-port="1" />
		<edge from-layer="6308" from-port="2" to-layer="6311" to-port="0" />
		<edge from-layer="6309" from-port="0" to-layer="6310" to-port="0" />
		<edge from-layer="6310" from-port="1" to-layer="6311" to-port="1" />
		<edge from-layer="6311" from-port="2" to-layer="6312" to-port="0" />
		<edge from-layer="6312" from-port="2" to-layer="6327" to-port="1" />
		<edge from-layer="6312" from-port="2" to-layer="6313" to-port="0" />
		<edge from-layer="6313" from-port="2" to-layer="6316" to-port="0" />
		<edge from-layer="6314" from-port="0" to-layer="6315" to-port="0" />
		<edge from-layer="6315" from-port="1" to-layer="6316" to-port="1" />
		<edge from-layer="6316" from-port="2" to-layer="6319" to-port="0" />
		<edge from-layer="6317" from-port="0" to-layer="6318" to-port="0" />
		<edge from-layer="6318" from-port="1" to-layer="6319" to-port="1" />
		<edge from-layer="6319" from-port="2" to-layer="6320" to-port="0" />
		<edge from-layer="6320" from-port="2" to-layer="6323" to-port="0" />
		<edge from-layer="6321" from-port="0" to-layer="6322" to-port="0" />
		<edge from-layer="6322" from-port="1" to-layer="6323" to-port="1" />
		<edge from-layer="6323" from-port="2" to-layer="6326" to-port="0" />
		<edge from-layer="6324" from-port="0" to-layer="6325" to-port="0" />
		<edge from-layer="6325" from-port="1" to-layer="6326" to-port="1" />
		<edge from-layer="6326" from-port="2" to-layer="6327" to-port="0" />
		<edge from-layer="6327" from-port="2" to-layer="6372" to-port="0" />
		<edge from-layer="6328" from-port="0" to-layer="6329" to-port="0" />
		<edge from-layer="6329" from-port="1" to-layer="6330" to-port="1" />
		<edge from-layer="6330" from-port="2" to-layer="6333" to-port="0" />
		<edge from-layer="6331" from-port="0" to-layer="6332" to-port="0" />
		<edge from-layer="6332" from-port="1" to-layer="6333" to-port="1" />
		<edge from-layer="6333" from-port="2" to-layer="6334" to-port="0" />
		<edge from-layer="6334" from-port="2" to-layer="6337" to-port="0" />
		<edge from-layer="6335" from-port="0" to-layer="6336" to-port="0" />
		<edge from-layer="6336" from-port="1" to-layer="6337" to-port="1" />
		<edge from-layer="6337" from-port="2" to-layer="6340" to-port="0" />
		<edge from-layer="6338" from-port="0" to-layer="6339" to-port="0" />
		<edge from-layer="6339" from-port="1" to-layer="6340" to-port="1" />
		<edge from-layer="6340" from-port="2" to-layer="6341" to-port="0" />
		<edge from-layer="6341" from-port="2" to-layer="6356" to-port="1" />
		<edge from-layer="6341" from-port="2" to-layer="6342" to-port="0" />
		<edge from-layer="6342" from-port="2" to-layer="6345" to-port="0" />
		<edge from-layer="6343" from-port="0" to-layer="6344" to-port="0" />
		<edge from-layer="6344" from-port="1" to-layer="6345" to-port="1" />
		<edge from-layer="6345" from-port="2" to-layer="6348" to-port="0" />
		<edge from-layer="6346" from-port="0" to-layer="6347" to-port="0" />
		<edge from-layer="6347" from-port="1" to-layer="6348" to-port="1" />
		<edge from-layer="6348" from-port="2" to-layer="6349" to-port="0" />
		<edge from-layer="6349" from-port="2" to-layer="6352" to-port="0" />
		<edge from-layer="6350" from-port="0" to-layer="6351" to-port="0" />
		<edge from-layer="6351" from-port="1" to-layer="6352" to-port="1" />
		<edge from-layer="6352" from-port="2" to-layer="6355" to-port="0" />
		<edge from-layer="6353" from-port="0" to-layer="6354" to-port="0" />
		<edge from-layer="6354" from-port="1" to-layer="6355" to-port="1" />
		<edge from-layer="6355" from-port="2" to-layer="6356" to-port="0" />
		<edge from-layer="6356" from-port="2" to-layer="6357" to-port="0" />
		<edge from-layer="6356" from-port="2" to-layer="6371" to-port="1" />
		<edge from-layer="6357" from-port="2" to-layer="6360" to-port="0" />
		<edge from-layer="6358" from-port="0" to-layer="6359" to-port="0" />
		<edge from-layer="6359" from-port="1" to-layer="6360" to-port="1" />
		<edge from-layer="6360" from-port="2" to-layer="6363" to-port="0" />
		<edge from-layer="6361" from-port="0" to-layer="6362" to-port="0" />
		<edge from-layer="6362" from-port="1" to-layer="6363" to-port="1" />
		<edge from-layer="6363" from-port="2" to-layer="6364" to-port="0" />
		<edge from-layer="6364" from-port="2" to-layer="6367" to-port="0" />
		<edge from-layer="6365" from-port="0" to-layer="6366" to-port="0" />
		<edge from-layer="6366" from-port="1" to-layer="6367" to-port="1" />
		<edge from-layer="6367" from-port="2" to-layer="6370" to-port="0" />
		<edge from-layer="6368" from-port="0" to-layer="6369" to-port="0" />
		<edge from-layer="6369" from-port="1" to-layer="6370" to-port="1" />
		<edge from-layer="6370" from-port="2" to-layer="6371" to-port="0" />
		<edge from-layer="6371" from-port="2" to-layer="6372" to-port="1" />
		<edge from-layer="6372" from-port="2" to-layer="6417" to-port="0" />
		<edge from-layer="6373" from-port="0" to-layer="6374" to-port="0" />
		<edge from-layer="6374" from-port="1" to-layer="6375" to-port="1" />
		<edge from-layer="6375" from-port="2" to-layer="6378" to-port="0" />
		<edge from-layer="6376" from-port="0" to-layer="6377" to-port="0" />
		<edge from-layer="6377" from-port="1" to-layer="6378" to-port="1" />
		<edge from-layer="6378" from-port="2" to-layer="6379" to-port="0" />
		<edge from-layer="6379" from-port="2" to-layer="6382" to-port="0" />
		<edge from-layer="6380" from-port="0" to-layer="6381" to-port="0" />
		<edge from-layer="6381" from-port="1" to-layer="6382" to-port="1" />
		<edge from-layer="6382" from-port="2" to-layer="6385" to-port="0" />
		<edge from-layer="6383" from-port="0" to-layer="6384" to-port="0" />
		<edge from-layer="6384" from-port="1" to-layer="6385" to-port="1" />
		<edge from-layer="6385" from-port="2" to-layer="6386" to-port="0" />
		<edge from-layer="6386" from-port="2" to-layer="6401" to-port="1" />
		<edge from-layer="6386" from-port="2" to-layer="6387" to-port="0" />
		<edge from-layer="6387" from-port="2" to-layer="6390" to-port="0" />
		<edge from-layer="6388" from-port="0" to-layer="6389" to-port="0" />
		<edge from-layer="6389" from-port="1" to-layer="6390" to-port="1" />
		<edge from-layer="6390" from-port="2" to-layer="6393" to-port="0" />
		<edge from-layer="6391" from-port="0" to-layer="6392" to-port="0" />
		<edge from-layer="6392" from-port="1" to-layer="6393" to-port="1" />
		<edge from-layer="6393" from-port="2" to-layer="6394" to-port="0" />
		<edge from-layer="6394" from-port="2" to-layer="6397" to-port="0" />
		<edge from-layer="6395" from-port="0" to-layer="6396" to-port="0" />
		<edge from-layer="6396" from-port="1" to-layer="6397" to-port="1" />
		<edge from-layer="6397" from-port="2" to-layer="6400" to-port="0" />
		<edge from-layer="6398" from-port="0" to-layer="6399" to-port="0" />
		<edge from-layer="6399" from-port="1" to-layer="6400" to-port="1" />
		<edge from-layer="6400" from-port="2" to-layer="6401" to-port="0" />
		<edge from-layer="6401" from-port="2" to-layer="6402" to-port="0" />
		<edge from-layer="6401" from-port="2" to-layer="6416" to-port="1" />
		<edge from-layer="6402" from-port="2" to-layer="6405" to-port="0" />
		<edge from-layer="6403" from-port="0" to-layer="6404" to-port="0" />
		<edge from-layer="6404" from-port="1" to-layer="6405" to-port="1" />
		<edge from-layer="6405" from-port="2" to-layer="6408" to-port="0" />
		<edge from-layer="6406" from-port="0" to-layer="6407" to-port="0" />
		<edge from-layer="6407" from-port="1" to-layer="6408" to-port="1" />
		<edge from-layer="6408" from-port="2" to-layer="6409" to-port="0" />
		<edge from-layer="6409" from-port="2" to-layer="6412" to-port="0" />
		<edge from-layer="6410" from-port="0" to-layer="6411" to-port="0" />
		<edge from-layer="6411" from-port="1" to-layer="6412" to-port="1" />
		<edge from-layer="6412" from-port="2" to-layer="6415" to-port="0" />
		<edge from-layer="6413" from-port="0" to-layer="6414" to-port="0" />
		<edge from-layer="6414" from-port="1" to-layer="6415" to-port="1" />
		<edge from-layer="6415" from-port="2" to-layer="6416" to-port="0" />
		<edge from-layer="6416" from-port="2" to-layer="6417" to-port="1" />
		<edge from-layer="6417" from-port="2" to-layer="6420" to-port="0" />
		<edge from-layer="6418" from-port="0" to-layer="6419" to-port="0" />
		<edge from-layer="6419" from-port="1" to-layer="6420" to-port="1" />
		<edge from-layer="6420" from-port="2" to-layer="6421" to-port="0" />
		<edge from-layer="6421" from-port="2" to-layer="6424" to-port="0" />
		<edge from-layer="6422" from-port="0" to-layer="6423" to-port="0" />
		<edge from-layer="6423" from-port="1" to-layer="6424" to-port="1" />
		<edge from-layer="6424" from-port="2" to-layer="6427" to-port="0" />
		<edge from-layer="6425" from-port="0" to-layer="6426" to-port="0" />
		<edge from-layer="6426" from-port="1" to-layer="6427" to-port="1" />
		<edge from-layer="6427" from-port="2" to-layer="6428" to-port="0" />
		<edge from-layer="6427" from-port="2" to-layer="6486" to-port="1" />
		<edge from-layer="6427" from-port="2" to-layer="6442" to-port="1" />
		<edge from-layer="6427" from-port="2" to-layer="6531" to-port="1" />
		<edge from-layer="6428" from-port="2" to-layer="6431" to-port="0" />
		<edge from-layer="6428" from-port="2" to-layer="6520" to-port="0" />
		<edge from-layer="6428" from-port="2" to-layer="6475" to-port="0" />
		<edge from-layer="6429" from-port="0" to-layer="6430" to-port="0" />
		<edge from-layer="6430" from-port="1" to-layer="6431" to-port="1" />
		<edge from-layer="6431" from-port="2" to-layer="6434" to-port="0" />
		<edge from-layer="6432" from-port="0" to-layer="6433" to-port="0" />
		<edge from-layer="6433" from-port="1" to-layer="6434" to-port="1" />
		<edge from-layer="6434" from-port="2" to-layer="6435" to-port="0" />
		<edge from-layer="6435" from-port="2" to-layer="6438" to-port="0" />
		<edge from-layer="6436" from-port="0" to-layer="6437" to-port="0" />
		<edge from-layer="6437" from-port="1" to-layer="6438" to-port="1" />
		<edge from-layer="6438" from-port="2" to-layer="6441" to-port="0" />
		<edge from-layer="6439" from-port="0" to-layer="6440" to-port="0" />
		<edge from-layer="6440" from-port="1" to-layer="6441" to-port="1" />
		<edge from-layer="6441" from-port="2" to-layer="6442" to-port="0" />
		<edge from-layer="6442" from-port="2" to-layer="6443" to-port="0" />
		<edge from-layer="6442" from-port="2" to-layer="6457" to-port="1" />
		<edge from-layer="6443" from-port="2" to-layer="6446" to-port="0" />
		<edge from-layer="6444" from-port="0" to-layer="6445" to-port="0" />
		<edge from-layer="6445" from-port="1" to-layer="6446" to-port="1" />
		<edge from-layer="6446" from-port="2" to-layer="6449" to-port="0" />
		<edge from-layer="6447" from-port="0" to-layer="6448" to-port="0" />
		<edge from-layer="6448" from-port="1" to-layer="6449" to-port="1" />
		<edge from-layer="6449" from-port="2" to-layer="6450" to-port="0" />
		<edge from-layer="6450" from-port="2" to-layer="6453" to-port="0" />
		<edge from-layer="6451" from-port="0" to-layer="6452" to-port="0" />
		<edge from-layer="6452" from-port="1" to-layer="6453" to-port="1" />
		<edge from-layer="6453" from-port="2" to-layer="6456" to-port="0" />
		<edge from-layer="6454" from-port="0" to-layer="6455" to-port="0" />
		<edge from-layer="6455" from-port="1" to-layer="6456" to-port="1" />
		<edge from-layer="6456" from-port="2" to-layer="6457" to-port="0" />
		<edge from-layer="6457" from-port="2" to-layer="6458" to-port="0" />
		<edge from-layer="6457" from-port="2" to-layer="6472" to-port="1" />
		<edge from-layer="6458" from-port="2" to-layer="6461" to-port="0" />
		<edge from-layer="6459" from-port="0" to-layer="6460" to-port="0" />
		<edge from-layer="6460" from-port="1" to-layer="6461" to-port="1" />
		<edge from-layer="6461" from-port="2" to-layer="6464" to-port="0" />
		<edge from-layer="6462" from-port="0" to-layer="6463" to-port="0" />
		<edge from-layer="6463" from-port="1" to-layer="6464" to-port="1" />
		<edge from-layer="6464" from-port="2" to-layer="6465" to-port="0" />
		<edge from-layer="6465" from-port="2" to-layer="6468" to-port="0" />
		<edge from-layer="6466" from-port="0" to-layer="6467" to-port="0" />
		<edge from-layer="6467" from-port="1" to-layer="6468" to-port="1" />
		<edge from-layer="6468" from-port="2" to-layer="6471" to-port="0" />
		<edge from-layer="6469" from-port="0" to-layer="6470" to-port="0" />
		<edge from-layer="6470" from-port="1" to-layer="6471" to-port="1" />
		<edge from-layer="6471" from-port="2" to-layer="6472" to-port="0" />
		<edge from-layer="6472" from-port="2" to-layer="6517" to-port="0" />
		<edge from-layer="6473" from-port="0" to-layer="6474" to-port="0" />
		<edge from-layer="6474" from-port="1" to-layer="6475" to-port="1" />
		<edge from-layer="6475" from-port="2" to-layer="6478" to-port="0" />
		<edge from-layer="6476" from-port="0" to-layer="6477" to-port="0" />
		<edge from-layer="6477" from-port="1" to-layer="6478" to-port="1" />
		<edge from-layer="6478" from-port="2" to-layer="6479" to-port="0" />
		<edge from-layer="6479" from-port="2" to-layer="6482" to-port="0" />
		<edge from-layer="6480" from-port="0" to-layer="6481" to-port="0" />
		<edge from-layer="6481" from-port="1" to-layer="6482" to-port="1" />
		<edge from-layer="6482" from-port="2" to-layer="6485" to-port="0" />
		<edge from-layer="6483" from-port="0" to-layer="6484" to-port="0" />
		<edge from-layer="6484" from-port="1" to-layer="6485" to-port="1" />
		<edge from-layer="6485" from-port="2" to-layer="6486" to-port="0" />
		<edge from-layer="6486" from-port="2" to-layer="6501" to-port="1" />
		<edge from-layer="6486" from-port="2" to-layer="6487" to-port="0" />
		<edge from-layer="6487" from-port="2" to-layer="6490" to-port="0" />
		<edge from-layer="6488" from-port="0" to-layer="6489" to-port="0" />
		<edge from-layer="6489" from-port="1" to-layer="6490" to-port="1" />
		<edge from-layer="6490" from-port="2" to-layer="6493" to-port="0" />
		<edge from-layer="6491" from-port="0" to-layer="6492" to-port="0" />
		<edge from-layer="6492" from-port="1" to-layer="6493" to-port="1" />
		<edge from-layer="6493" from-port="2" to-layer="6494" to-port="0" />
		<edge from-layer="6494" from-port="2" to-layer="6497" to-port="0" />
		<edge from-layer="6495" from-port="0" to-layer="6496" to-port="0" />
		<edge from-layer="6496" from-port="1" to-layer="6497" to-port="1" />
		<edge from-layer="6497" from-port="2" to-layer="6500" to-port="0" />
		<edge from-layer="6498" from-port="0" to-layer="6499" to-port="0" />
		<edge from-layer="6499" from-port="1" to-layer="6500" to-port="1" />
		<edge from-layer="6500" from-port="2" to-layer="6501" to-port="0" />
		<edge from-layer="6501" from-port="2" to-layer="6502" to-port="0" />
		<edge from-layer="6501" from-port="2" to-layer="6516" to-port="1" />
		<edge from-layer="6502" from-port="2" to-layer="6505" to-port="0" />
		<edge from-layer="6503" from-port="0" to-layer="6504" to-port="0" />
		<edge from-layer="6504" from-port="1" to-layer="6505" to-port="1" />
		<edge from-layer="6505" from-port="2" to-layer="6508" to-port="0" />
		<edge from-layer="6506" from-port="0" to-layer="6507" to-port="0" />
		<edge from-layer="6507" from-port="1" to-layer="6508" to-port="1" />
		<edge from-layer="6508" from-port="2" to-layer="6509" to-port="0" />
		<edge from-layer="6509" from-port="2" to-layer="6512" to-port="0" />
		<edge from-layer="6510" from-port="0" to-layer="6511" to-port="0" />
		<edge from-layer="6511" from-port="1" to-layer="6512" to-port="1" />
		<edge from-layer="6512" from-port="2" to-layer="6515" to-port="0" />
		<edge from-layer="6513" from-port="0" to-layer="6514" to-port="0" />
		<edge from-layer="6514" from-port="1" to-layer="6515" to-port="1" />
		<edge from-layer="6515" from-port="2" to-layer="6516" to-port="0" />
		<edge from-layer="6516" from-port="2" to-layer="6517" to-port="1" />
		<edge from-layer="6517" from-port="2" to-layer="6562" to-port="0" />
		<edge from-layer="6518" from-port="0" to-layer="6519" to-port="0" />
		<edge from-layer="6519" from-port="1" to-layer="6520" to-port="1" />
		<edge from-layer="6520" from-port="2" to-layer="6523" to-port="0" />
		<edge from-layer="6521" from-port="0" to-layer="6522" to-port="0" />
		<edge from-layer="6522" from-port="1" to-layer="6523" to-port="1" />
		<edge from-layer="6523" from-port="2" to-layer="6524" to-port="0" />
		<edge from-layer="6524" from-port="2" to-layer="6527" to-port="0" />
		<edge from-layer="6525" from-port="0" to-layer="6526" to-port="0" />
		<edge from-layer="6526" from-port="1" to-layer="6527" to-port="1" />
		<edge from-layer="6527" from-port="2" to-layer="6530" to-port="0" />
		<edge from-layer="6528" from-port="0" to-layer="6529" to-port="0" />
		<edge from-layer="6529" from-port="1" to-layer="6530" to-port="1" />
		<edge from-layer="6530" from-port="2" to-layer="6531" to-port="0" />
		<edge from-layer="6531" from-port="2" to-layer="6532" to-port="0" />
		<edge from-layer="6531" from-port="2" to-layer="6546" to-port="1" />
		<edge from-layer="6532" from-port="2" to-layer="6535" to-port="0" />
		<edge from-layer="6533" from-port="0" to-layer="6534" to-port="0" />
		<edge from-layer="6534" from-port="1" to-layer="6535" to-port="1" />
		<edge from-layer="6535" from-port="2" to-layer="6538" to-port="0" />
		<edge from-layer="6536" from-port="0" to-layer="6537" to-port="0" />
		<edge from-layer="6537" from-port="1" to-layer="6538" to-port="1" />
		<edge from-layer="6538" from-port="2" to-layer="6539" to-port="0" />
		<edge from-layer="6539" from-port="2" to-layer="6542" to-port="0" />
		<edge from-layer="6540" from-port="0" to-layer="6541" to-port="0" />
		<edge from-layer="6541" from-port="1" to-layer="6542" to-port="1" />
		<edge from-layer="6542" from-port="2" to-layer="6545" to-port="0" />
		<edge from-layer="6543" from-port="0" to-layer="6544" to-port="0" />
		<edge from-layer="6544" from-port="1" to-layer="6545" to-port="1" />
		<edge from-layer="6545" from-port="2" to-layer="6546" to-port="0" />
		<edge from-layer="6546" from-port="2" to-layer="6547" to-port="0" />
		<edge from-layer="6546" from-port="2" to-layer="6561" to-port="1" />
		<edge from-layer="6547" from-port="2" to-layer="6550" to-port="0" />
		<edge from-layer="6548" from-port="0" to-layer="6549" to-port="0" />
		<edge from-layer="6549" from-port="1" to-layer="6550" to-port="1" />
		<edge from-layer="6550" from-port="2" to-layer="6553" to-port="0" />
		<edge from-layer="6551" from-port="0" to-layer="6552" to-port="0" />
		<edge from-layer="6552" from-port="1" to-layer="6553" to-port="1" />
		<edge from-layer="6553" from-port="2" to-layer="6554" to-port="0" />
		<edge from-layer="6554" from-port="2" to-layer="6557" to-port="0" />
		<edge from-layer="6555" from-port="0" to-layer="6556" to-port="0" />
		<edge from-layer="6556" from-port="1" to-layer="6557" to-port="1" />
		<edge from-layer="6557" from-port="2" to-layer="6560" to-port="0" />
		<edge from-layer="6558" from-port="0" to-layer="6559" to-port="0" />
		<edge from-layer="6559" from-port="1" to-layer="6560" to-port="1" />
		<edge from-layer="6560" from-port="2" to-layer="6561" to-port="0" />
		<edge from-layer="6561" from-port="2" to-layer="6562" to-port="1" />
		<edge from-layer="6562" from-port="2" to-layer="6565" to-port="0" />
		<edge from-layer="6563" from-port="0" to-layer="6564" to-port="0" />
		<edge from-layer="6564" from-port="1" to-layer="6565" to-port="1" />
		<edge from-layer="6565" from-port="2" to-layer="6566" to-port="0" />
		<edge from-layer="6566" from-port="2" to-layer="6569" to-port="0" />
		<edge from-layer="6567" from-port="0" to-layer="6568" to-port="0" />
		<edge from-layer="6568" from-port="1" to-layer="6569" to-port="1" />
		<edge from-layer="6569" from-port="2" to-layer="6572" to-port="0" />
		<edge from-layer="6570" from-port="0" to-layer="6571" to-port="0" />
		<edge from-layer="6571" from-port="1" to-layer="6572" to-port="1" />
		<edge from-layer="6572" from-port="2" to-layer="6676" to-port="1" />
		<edge from-layer="6572" from-port="2" to-layer="6587" to-port="1" />
		<edge from-layer="6572" from-port="2" to-layer="6573" to-port="0" />
		<edge from-layer="6572" from-port="2" to-layer="6631" to-port="1" />
		<edge from-layer="6573" from-port="2" to-layer="6665" to-port="0" />
		<edge from-layer="6573" from-port="2" to-layer="6620" to-port="0" />
		<edge from-layer="6573" from-port="2" to-layer="6576" to-port="0" />
		<edge from-layer="6574" from-port="0" to-layer="6575" to-port="0" />
		<edge from-layer="6575" from-port="1" to-layer="6576" to-port="1" />
		<edge from-layer="6576" from-port="2" to-layer="6579" to-port="0" />
		<edge from-layer="6577" from-port="0" to-layer="6578" to-port="0" />
		<edge from-layer="6578" from-port="1" to-layer="6579" to-port="1" />
		<edge from-layer="6579" from-port="2" to-layer="6580" to-port="0" />
		<edge from-layer="6580" from-port="2" to-layer="6583" to-port="0" />
		<edge from-layer="6581" from-port="0" to-layer="6582" to-port="0" />
		<edge from-layer="6582" from-port="1" to-layer="6583" to-port="1" />
		<edge from-layer="6583" from-port="2" to-layer="6586" to-port="0" />
		<edge from-layer="6584" from-port="0" to-layer="6585" to-port="0" />
		<edge from-layer="6585" from-port="1" to-layer="6586" to-port="1" />
		<edge from-layer="6586" from-port="2" to-layer="6587" to-port="0" />
		<edge from-layer="6587" from-port="2" to-layer="6588" to-port="0" />
		<edge from-layer="6587" from-port="2" to-layer="6602" to-port="1" />
		<edge from-layer="6588" from-port="2" to-layer="6591" to-port="0" />
		<edge from-layer="6589" from-port="0" to-layer="6590" to-port="0" />
		<edge from-layer="6590" from-port="1" to-layer="6591" to-port="1" />
		<edge from-layer="6591" from-port="2" to-layer="6594" to-port="0" />
		<edge from-layer="6592" from-port="0" to-layer="6593" to-port="0" />
		<edge from-layer="6593" from-port="1" to-layer="6594" to-port="1" />
		<edge from-layer="6594" from-port="2" to-layer="6595" to-port="0" />
		<edge from-layer="6595" from-port="2" to-layer="6598" to-port="0" />
		<edge from-layer="6596" from-port="0" to-layer="6597" to-port="0" />
		<edge from-layer="6597" from-port="1" to-layer="6598" to-port="1" />
		<edge from-layer="6598" from-port="2" to-layer="6601" to-port="0" />
		<edge from-layer="6599" from-port="0" to-layer="6600" to-port="0" />
		<edge from-layer="6600" from-port="1" to-layer="6601" to-port="1" />
		<edge from-layer="6601" from-port="2" to-layer="6602" to-port="0" />
		<edge from-layer="6602" from-port="2" to-layer="6603" to-port="0" />
		<edge from-layer="6602" from-port="2" to-layer="6617" to-port="1" />
		<edge from-layer="6603" from-port="2" to-layer="6606" to-port="0" />
		<edge from-layer="6604" from-port="0" to-layer="6605" to-port="0" />
		<edge from-layer="6605" from-port="1" to-layer="6606" to-port="1" />
		<edge from-layer="6606" from-port="2" to-layer="6609" to-port="0" />
		<edge from-layer="6607" from-port="0" to-layer="6608" to-port="0" />
		<edge from-layer="6608" from-port="1" to-layer="6609" to-port="1" />
		<edge from-layer="6609" from-port="2" to-layer="6610" to-port="0" />
		<edge from-layer="6610" from-port="2" to-layer="6613" to-port="0" />
		<edge from-layer="6611" from-port="0" to-layer="6612" to-port="0" />
		<edge from-layer="6612" from-port="1" to-layer="6613" to-port="1" />
		<edge from-layer="6613" from-port="2" to-layer="6616" to-port="0" />
		<edge from-layer="6614" from-port="0" to-layer="6615" to-port="0" />
		<edge from-layer="6615" from-port="1" to-layer="6616" to-port="1" />
		<edge from-layer="6616" from-port="2" to-layer="6617" to-port="0" />
		<edge from-layer="6617" from-port="2" to-layer="6662" to-port="0" />
		<edge from-layer="6618" from-port="0" to-layer="6619" to-port="0" />
		<edge from-layer="6619" from-port="1" to-layer="6620" to-port="1" />
		<edge from-layer="6620" from-port="2" to-layer="6623" to-port="0" />
		<edge from-layer="6621" from-port="0" to-layer="6622" to-port="0" />
		<edge from-layer="6622" from-port="1" to-layer="6623" to-port="1" />
		<edge from-layer="6623" from-port="2" to-layer="6624" to-port="0" />
		<edge from-layer="6624" from-port="2" to-layer="6627" to-port="0" />
		<edge from-layer="6625" from-port="0" to-layer="6626" to-port="0" />
		<edge from-layer="6626" from-port="1" to-layer="6627" to-port="1" />
		<edge from-layer="6627" from-port="2" to-layer="6630" to-port="0" />
		<edge from-layer="6628" from-port="0" to-layer="6629" to-port="0" />
		<edge from-layer="6629" from-port="1" to-layer="6630" to-port="1" />
		<edge from-layer="6630" from-port="2" to-layer="6631" to-port="0" />
		<edge from-layer="6631" from-port="2" to-layer="6646" to-port="1" />
		<edge from-layer="6631" from-port="2" to-layer="6632" to-port="0" />
		<edge from-layer="6632" from-port="2" to-layer="6635" to-port="0" />
		<edge from-layer="6633" from-port="0" to-layer="6634" to-port="0" />
		<edge from-layer="6634" from-port="1" to-layer="6635" to-port="1" />
		<edge from-layer="6635" from-port="2" to-layer="6638" to-port="0" />
		<edge from-layer="6636" from-port="0" to-layer="6637" to-port="0" />
		<edge from-layer="6637" from-port="1" to-layer="6638" to-port="1" />
		<edge from-layer="6638" from-port="2" to-layer="6639" to-port="0" />
		<edge from-layer="6639" from-port="2" to-layer="6642" to-port="0" />
		<edge from-layer="6640" from-port="0" to-layer="6641" to-port="0" />
		<edge from-layer="6641" from-port="1" to-layer="6642" to-port="1" />
		<edge from-layer="6642" from-port="2" to-layer="6645" to-port="0" />
		<edge from-layer="6643" from-port="0" to-layer="6644" to-port="0" />
		<edge from-layer="6644" from-port="1" to-layer="6645" to-port="1" />
		<edge from-layer="6645" from-port="2" to-layer="6646" to-port="0" />
		<edge from-layer="6646" from-port="2" to-layer="6647" to-port="0" />
		<edge from-layer="6646" from-port="2" to-layer="6661" to-port="1" />
		<edge from-layer="6647" from-port="2" to-layer="6650" to-port="0" />
		<edge from-layer="6648" from-port="0" to-layer="6649" to-port="0" />
		<edge from-layer="6649" from-port="1" to-layer="6650" to-port="1" />
		<edge from-layer="6650" from-port="2" to-layer="6653" to-port="0" />
		<edge from-layer="6651" from-port="0" to-layer="6652" to-port="0" />
		<edge from-layer="6652" from-port="1" to-layer="6653" to-port="1" />
		<edge from-layer="6653" from-port="2" to-layer="6654" to-port="0" />
		<edge from-layer="6654" from-port="2" to-layer="6657" to-port="0" />
		<edge from-layer="6655" from-port="0" to-layer="6656" to-port="0" />
		<edge from-layer="6656" from-port="1" to-layer="6657" to-port="1" />
		<edge from-layer="6657" from-port="2" to-layer="6660" to-port="0" />
		<edge from-layer="6658" from-port="0" to-layer="6659" to-port="0" />
		<edge from-layer="6659" from-port="1" to-layer="6660" to-port="1" />
		<edge from-layer="6660" from-port="2" to-layer="6661" to-port="0" />
		<edge from-layer="6661" from-port="2" to-layer="6662" to-port="1" />
		<edge from-layer="6662" from-port="2" to-layer="6707" to-port="0" />
		<edge from-layer="6663" from-port="0" to-layer="6664" to-port="0" />
		<edge from-layer="6664" from-port="1" to-layer="6665" to-port="1" />
		<edge from-layer="6665" from-port="2" to-layer="6668" to-port="0" />
		<edge from-layer="6666" from-port="0" to-layer="6667" to-port="0" />
		<edge from-layer="6667" from-port="1" to-layer="6668" to-port="1" />
		<edge from-layer="6668" from-port="2" to-layer="6669" to-port="0" />
		<edge from-layer="6669" from-port="2" to-layer="6672" to-port="0" />
		<edge from-layer="6670" from-port="0" to-layer="6671" to-port="0" />
		<edge from-layer="6671" from-port="1" to-layer="6672" to-port="1" />
		<edge from-layer="6672" from-port="2" to-layer="6675" to-port="0" />
		<edge from-layer="6673" from-port="0" to-layer="6674" to-port="0" />
		<edge from-layer="6674" from-port="1" to-layer="6675" to-port="1" />
		<edge from-layer="6675" from-port="2" to-layer="6676" to-port="0" />
		<edge from-layer="6676" from-port="2" to-layer="6677" to-port="0" />
		<edge from-layer="6676" from-port="2" to-layer="6691" to-port="1" />
		<edge from-layer="6677" from-port="2" to-layer="6680" to-port="0" />
		<edge from-layer="6678" from-port="0" to-layer="6679" to-port="0" />
		<edge from-layer="6679" from-port="1" to-layer="6680" to-port="1" />
		<edge from-layer="6680" from-port="2" to-layer="6683" to-port="0" />
		<edge from-layer="6681" from-port="0" to-layer="6682" to-port="0" />
		<edge from-layer="6682" from-port="1" to-layer="6683" to-port="1" />
		<edge from-layer="6683" from-port="2" to-layer="6684" to-port="0" />
		<edge from-layer="6684" from-port="2" to-layer="6687" to-port="0" />
		<edge from-layer="6685" from-port="0" to-layer="6686" to-port="0" />
		<edge from-layer="6686" from-port="1" to-layer="6687" to-port="1" />
		<edge from-layer="6687" from-port="2" to-layer="6690" to-port="0" />
		<edge from-layer="6688" from-port="0" to-layer="6689" to-port="0" />
		<edge from-layer="6689" from-port="1" to-layer="6690" to-port="1" />
		<edge from-layer="6690" from-port="2" to-layer="6691" to-port="0" />
		<edge from-layer="6691" from-port="2" to-layer="6706" to-port="1" />
		<edge from-layer="6691" from-port="2" to-layer="6692" to-port="0" />
		<edge from-layer="6692" from-port="2" to-layer="6695" to-port="0" />
		<edge from-layer="6693" from-port="0" to-layer="6694" to-port="0" />
		<edge from-layer="6694" from-port="1" to-layer="6695" to-port="1" />
		<edge from-layer="6695" from-port="2" to-layer="6698" to-port="0" />
		<edge from-layer="6696" from-port="0" to-layer="6697" to-port="0" />
		<edge from-layer="6697" from-port="1" to-layer="6698" to-port="1" />
		<edge from-layer="6698" from-port="2" to-layer="6699" to-port="0" />
		<edge from-layer="6699" from-port="2" to-layer="6702" to-port="0" />
		<edge from-layer="6700" from-port="0" to-layer="6701" to-port="0" />
		<edge from-layer="6701" from-port="1" to-layer="6702" to-port="1" />
		<edge from-layer="6702" from-port="2" to-layer="6705" to-port="0" />
		<edge from-layer="6703" from-port="0" to-layer="6704" to-port="0" />
		<edge from-layer="6704" from-port="1" to-layer="6705" to-port="1" />
		<edge from-layer="6705" from-port="2" to-layer="6706" to-port="0" />
		<edge from-layer="6706" from-port="2" to-layer="6707" to-port="1" />
		<edge from-layer="6707" from-port="2" to-layer="6710" to-port="0" />
		<edge from-layer="6708" from-port="0" to-layer="6709" to-port="0" />
		<edge from-layer="6709" from-port="1" to-layer="6710" to-port="1" />
		<edge from-layer="6710" from-port="2" to-layer="6711" to-port="0" />
		<edge from-layer="6711" from-port="2" to-layer="6714" to-port="0" />
		<edge from-layer="6712" from-port="0" to-layer="6713" to-port="0" />
		<edge from-layer="6713" from-port="1" to-layer="6714" to-port="1" />
		<edge from-layer="6714" from-port="2" to-layer="6717" to-port="0" />
		<edge from-layer="6715" from-port="0" to-layer="6716" to-port="0" />
		<edge from-layer="6716" from-port="1" to-layer="6717" to-port="1" />
		<edge from-layer="6717" from-port="2" to-layer="6718" to-port="0" />
		<edge from-layer="6717" from-port="2" to-layer="6732" to-port="1" />
		<edge from-layer="6717" from-port="2" to-layer="6821" to-port="1" />
		<edge from-layer="6717" from-port="2" to-layer="6776" to-port="1" />
		<edge from-layer="6718" from-port="2" to-layer="6721" to-port="0" />
		<edge from-layer="6718" from-port="2" to-layer="6810" to-port="0" />
		<edge from-layer="6718" from-port="2" to-layer="6765" to-port="0" />
		<edge from-layer="6719" from-port="0" to-layer="6720" to-port="0" />
		<edge from-layer="6720" from-port="1" to-layer="6721" to-port="1" />
		<edge from-layer="6721" from-port="2" to-layer="6724" to-port="0" />
		<edge from-layer="6722" from-port="0" to-layer="6723" to-port="0" />
		<edge from-layer="6723" from-port="1" to-layer="6724" to-port="1" />
		<edge from-layer="6724" from-port="2" to-layer="6725" to-port="0" />
		<edge from-layer="6725" from-port="2" to-layer="6728" to-port="0" />
		<edge from-layer="6726" from-port="0" to-layer="6727" to-port="0" />
		<edge from-layer="6727" from-port="1" to-layer="6728" to-port="1" />
		<edge from-layer="6728" from-port="2" to-layer="6731" to-port="0" />
		<edge from-layer="6729" from-port="0" to-layer="6730" to-port="0" />
		<edge from-layer="6730" from-port="1" to-layer="6731" to-port="1" />
		<edge from-layer="6731" from-port="2" to-layer="6732" to-port="0" />
		<edge from-layer="6732" from-port="2" to-layer="6733" to-port="0" />
		<edge from-layer="6732" from-port="2" to-layer="6747" to-port="1" />
		<edge from-layer="6733" from-port="2" to-layer="6736" to-port="0" />
		<edge from-layer="6734" from-port="0" to-layer="6735" to-port="0" />
		<edge from-layer="6735" from-port="1" to-layer="6736" to-port="1" />
		<edge from-layer="6736" from-port="2" to-layer="6739" to-port="0" />
		<edge from-layer="6737" from-port="0" to-layer="6738" to-port="0" />
		<edge from-layer="6738" from-port="1" to-layer="6739" to-port="1" />
		<edge from-layer="6739" from-port="2" to-layer="6740" to-port="0" />
		<edge from-layer="6740" from-port="2" to-layer="6743" to-port="0" />
		<edge from-layer="6741" from-port="0" to-layer="6742" to-port="0" />
		<edge from-layer="6742" from-port="1" to-layer="6743" to-port="1" />
		<edge from-layer="6743" from-port="2" to-layer="6746" to-port="0" />
		<edge from-layer="6744" from-port="0" to-layer="6745" to-port="0" />
		<edge from-layer="6745" from-port="1" to-layer="6746" to-port="1" />
		<edge from-layer="6746" from-port="2" to-layer="6747" to-port="0" />
		<edge from-layer="6747" from-port="2" to-layer="6762" to-port="1" />
		<edge from-layer="6747" from-port="2" to-layer="6748" to-port="0" />
		<edge from-layer="6748" from-port="2" to-layer="6751" to-port="0" />
		<edge from-layer="6749" from-port="0" to-layer="6750" to-port="0" />
		<edge from-layer="6750" from-port="1" to-layer="6751" to-port="1" />
		<edge from-layer="6751" from-port="2" to-layer="6754" to-port="0" />
		<edge from-layer="6752" from-port="0" to-layer="6753" to-port="0" />
		<edge from-layer="6753" from-port="1" to-layer="6754" to-port="1" />
		<edge from-layer="6754" from-port="2" to-layer="6755" to-port="0" />
		<edge from-layer="6755" from-port="2" to-layer="6758" to-port="0" />
		<edge from-layer="6756" from-port="0" to-layer="6757" to-port="0" />
		<edge from-layer="6757" from-port="1" to-layer="6758" to-port="1" />
		<edge from-layer="6758" from-port="2" to-layer="6761" to-port="0" />
		<edge from-layer="6759" from-port="0" to-layer="6760" to-port="0" />
		<edge from-layer="6760" from-port="1" to-layer="6761" to-port="1" />
		<edge from-layer="6761" from-port="2" to-layer="6762" to-port="0" />
		<edge from-layer="6762" from-port="2" to-layer="6807" to-port="0" />
		<edge from-layer="6763" from-port="0" to-layer="6764" to-port="0" />
		<edge from-layer="6764" from-port="1" to-layer="6765" to-port="1" />
		<edge from-layer="6765" from-port="2" to-layer="6768" to-port="0" />
		<edge from-layer="6766" from-port="0" to-layer="6767" to-port="0" />
		<edge from-layer="6767" from-port="1" to-layer="6768" to-port="1" />
		<edge from-layer="6768" from-port="2" to-layer="6769" to-port="0" />
		<edge from-layer="6769" from-port="2" to-layer="6772" to-port="0" />
		<edge from-layer="6770" from-port="0" to-layer="6771" to-port="0" />
		<edge from-layer="6771" from-port="1" to-layer="6772" to-port="1" />
		<edge from-layer="6772" from-port="2" to-layer="6775" to-port="0" />
		<edge from-layer="6773" from-port="0" to-layer="6774" to-port="0" />
		<edge from-layer="6774" from-port="1" to-layer="6775" to-port="1" />
		<edge from-layer="6775" from-port="2" to-layer="6776" to-port="0" />
		<edge from-layer="6776" from-port="2" to-layer="6791" to-port="1" />
		<edge from-layer="6776" from-port="2" to-layer="6777" to-port="0" />
		<edge from-layer="6777" from-port="2" to-layer="6780" to-port="0" />
		<edge from-layer="6778" from-port="0" to-layer="6779" to-port="0" />
		<edge from-layer="6779" from-port="1" to-layer="6780" to-port="1" />
		<edge from-layer="6780" from-port="2" to-layer="6783" to-port="0" />
		<edge from-layer="6781" from-port="0" to-layer="6782" to-port="0" />
		<edge from-layer="6782" from-port="1" to-layer="6783" to-port="1" />
		<edge from-layer="6783" from-port="2" to-layer="6784" to-port="0" />
		<edge from-layer="6784" from-port="2" to-layer="6787" to-port="0" />
		<edge from-layer="6785" from-port="0" to-layer="6786" to-port="0" />
		<edge from-layer="6786" from-port="1" to-layer="6787" to-port="1" />
		<edge from-layer="6787" from-port="2" to-layer="6790" to-port="0" />
		<edge from-layer="6788" from-port="0" to-layer="6789" to-port="0" />
		<edge from-layer="6789" from-port="1" to-layer="6790" to-port="1" />
		<edge from-layer="6790" from-port="2" to-layer="6791" to-port="0" />
		<edge from-layer="6791" from-port="2" to-layer="6792" to-port="0" />
		<edge from-layer="6791" from-port="2" to-layer="6806" to-port="1" />
		<edge from-layer="6792" from-port="2" to-layer="6795" to-port="0" />
		<edge from-layer="6793" from-port="0" to-layer="6794" to-port="0" />
		<edge from-layer="6794" from-port="1" to-layer="6795" to-port="1" />
		<edge from-layer="6795" from-port="2" to-layer="6798" to-port="0" />
		<edge from-layer="6796" from-port="0" to-layer="6797" to-port="0" />
		<edge from-layer="6797" from-port="1" to-layer="6798" to-port="1" />
		<edge from-layer="6798" from-port="2" to-layer="6799" to-port="0" />
		<edge from-layer="6799" from-port="2" to-layer="6802" to-port="0" />
		<edge from-layer="6800" from-port="0" to-layer="6801" to-port="0" />
		<edge from-layer="6801" from-port="1" to-layer="6802" to-port="1" />
		<edge from-layer="6802" from-port="2" to-layer="6805" to-port="0" />
		<edge from-layer="6803" from-port="0" to-layer="6804" to-port="0" />
		<edge from-layer="6804" from-port="1" to-layer="6805" to-port="1" />
		<edge from-layer="6805" from-port="2" to-layer="6806" to-port="0" />
		<edge from-layer="6806" from-port="2" to-layer="6807" to-port="1" />
		<edge from-layer="6807" from-port="2" to-layer="6852" to-port="0" />
		<edge from-layer="6808" from-port="0" to-layer="6809" to-port="0" />
		<edge from-layer="6809" from-port="1" to-layer="6810" to-port="1" />
		<edge from-layer="6810" from-port="2" to-layer="6813" to-port="0" />
		<edge from-layer="6811" from-port="0" to-layer="6812" to-port="0" />
		<edge from-layer="6812" from-port="1" to-layer="6813" to-port="1" />
		<edge from-layer="6813" from-port="2" to-layer="6814" to-port="0" />
		<edge from-layer="6814" from-port="2" to-layer="6817" to-port="0" />
		<edge from-layer="6815" from-port="0" to-layer="6816" to-port="0" />
		<edge from-layer="6816" from-port="1" to-layer="6817" to-port="1" />
		<edge from-layer="6817" from-port="2" to-layer="6820" to-port="0" />
		<edge from-layer="6818" from-port="0" to-layer="6819" to-port="0" />
		<edge from-layer="6819" from-port="1" to-layer="6820" to-port="1" />
		<edge from-layer="6820" from-port="2" to-layer="6821" to-port="0" />
		<edge from-layer="6821" from-port="2" to-layer="6822" to-port="0" />
		<edge from-layer="6821" from-port="2" to-layer="6836" to-port="1" />
		<edge from-layer="6822" from-port="2" to-layer="6825" to-port="0" />
		<edge from-layer="6823" from-port="0" to-layer="6824" to-port="0" />
		<edge from-layer="6824" from-port="1" to-layer="6825" to-port="1" />
		<edge from-layer="6825" from-port="2" to-layer="6828" to-port="0" />
		<edge from-layer="6826" from-port="0" to-layer="6827" to-port="0" />
		<edge from-layer="6827" from-port="1" to-layer="6828" to-port="1" />
		<edge from-layer="6828" from-port="2" to-layer="6829" to-port="0" />
		<edge from-layer="6829" from-port="2" to-layer="6832" to-port="0" />
		<edge from-layer="6830" from-port="0" to-layer="6831" to-port="0" />
		<edge from-layer="6831" from-port="1" to-layer="6832" to-port="1" />
		<edge from-layer="6832" from-port="2" to-layer="6835" to-port="0" />
		<edge from-layer="6833" from-port="0" to-layer="6834" to-port="0" />
		<edge from-layer="6834" from-port="1" to-layer="6835" to-port="1" />
		<edge from-layer="6835" from-port="2" to-layer="6836" to-port="0" />
		<edge from-layer="6836" from-port="2" to-layer="6837" to-port="0" />
		<edge from-layer="6836" from-port="2" to-layer="6851" to-port="1" />
		<edge from-layer="6837" from-port="2" to-layer="6840" to-port="0" />
		<edge from-layer="6838" from-port="0" to-layer="6839" to-port="0" />
		<edge from-layer="6839" from-port="1" to-layer="6840" to-port="1" />
		<edge from-layer="6840" from-port="2" to-layer="6843" to-port="0" />
		<edge from-layer="6841" from-port="0" to-layer="6842" to-port="0" />
		<edge from-layer="6842" from-port="1" to-layer="6843" to-port="1" />
		<edge from-layer="6843" from-port="2" to-layer="6844" to-port="0" />
		<edge from-layer="6844" from-port="2" to-layer="6847" to-port="0" />
		<edge from-layer="6845" from-port="0" to-layer="6846" to-port="0" />
		<edge from-layer="6846" from-port="1" to-layer="6847" to-port="1" />
		<edge from-layer="6847" from-port="2" to-layer="6850" to-port="0" />
		<edge from-layer="6848" from-port="0" to-layer="6849" to-port="0" />
		<edge from-layer="6849" from-port="1" to-layer="6850" to-port="1" />
		<edge from-layer="6850" from-port="2" to-layer="6851" to-port="0" />
		<edge from-layer="6851" from-port="2" to-layer="6852" to-port="1" />
		<edge from-layer="6852" from-port="2" to-layer="6855" to-port="0" />
		<edge from-layer="6853" from-port="0" to-layer="6854" to-port="0" />
		<edge from-layer="6854" from-port="1" to-layer="6855" to-port="1" />
		<edge from-layer="6855" from-port="2" to-layer="6858" to-port="0" />
		<edge from-layer="6856" from-port="0" to-layer="6857" to-port="0" />
		<edge from-layer="6857" from-port="1" to-layer="6858" to-port="1" />
		<edge from-layer="6858" from-port="2" to-layer="6861" to-port="0" />
		<edge from-layer="6859" from-port="0" to-layer="6860" to-port="0" />
		<edge from-layer="6860" from-port="1" to-layer="6861" to-port="1" />
		<edge from-layer="6861" from-port="2" to-layer="6862" to-port="0" />
		<edge from-layer="6862" from-port="1" to-layer="6863" to-port="0" />
	</edges>
	<rt_info>
		<Runtime_version value="2024.5.0-16650-aec80e93dac-refs/pull/26415/head" />
		<conversion_parameters>
			<framework value="pytorch" />
			<is_python_object value="True" />
		</conversion_parameters>
	</rt_info>
</net>
